Labs/Homework_02/Group4_kws_b.tflite (tflite, 28400 bytes, 11 tensors)

unknown_17 f4 [8]
00000000: 6875 9439 ae33 8b3e 6cef febb 5208 1a3d
00000010: 592c 95be 3e40 5cbe 4be9 b2bd cc79 9d3e
0.00028316234 0.27187866 -0.007780006 0.03760559 -0.29135397 -0.21508881 -0.08735903 0.30756986

sequential/batch_normalization/FusedBatchNormV3;StatefulPartitionedCall/sequential/batch_normalization/FusedBatchNormV3 f4 [76]
00000000: d411 453f 51df 903f 6fd5 b03e f99a c3be
00000010: 536a 8b3f d45c 7abf 0d89 173f 0e77 1ebe
00000020: efaf 71be fb84 21bf f005 f4be 867a 35be
00000030: 3620 2c3f 8122 ff3e 2a5b dd3e 0c42 fe3e
00000040: d93c a3be 63b6 11bf 149b 23be 188f dabd
00000050: 3266 22bf 1856 f9bd 70ab 9d3f 3047 323f
00000060: c270 413f f4a2 a9bd 4c6c debe 9a8f 81bf
00000070: fc38 96bf 64eb ab3d 1bb6 77bf 1026 babc
00000080: 8a46 f5bf aebc a83e 1567 893e 863d fd3e
00000090: ae24 20bd c28f 07bf 36c3 e1be a007 6dbf
000000a0: 33b2 6840 b37f b93e 63dd f33e 44af 7a3f
000000b0: fcb9 593e 3c19 04bf c6d3 f83f 63a5 5abe
000000c0: c0e0 8cbc 62df d23e f6b9 50bf 6f75 7fbe
000000d0: 93ee 383e 86da e3be 986e 6c40 c5c0 f8be
000000e0: 8a70 be3d 94ba c63f 3dbf ebbe cc71 29bf
000000f0: ad65 a0bf a432 e23e bb16 adbe 2adf 593e
00000100: 5427 a73d 9411 fc3e 047d 1ebf fdf3 e1be
00000110: acc3 8cbf e04d a23e 9c56 d0be 6e68 443f
00000120: ae6b 38be 44e5 c93e 4626 25bf 535e f3be
0.7698033 1.1318151 0.34537837 -0.38204172 1.0891823 -0.97797894 0.591935 -0.15475103
-0.2360227 -0.6309354 -0.4766078 -0.1772252 0.6723665 0.49831012 0.43233615 0.49659765
-0.3188236 -0.56918925 -0.15977126 -0.10671824 -0.6343719 -0.12174624 1.2317944 0.69639874
0.7556268 -0.08283034 -0.43442 -1.0121949 -1.173614 0.083945066 -0.96762246 -0.022723228
-1.9162152 0.3295645 0.26836458 0.49461 -0.03909748 -0.5295373 -0.44094247 -0.9258976
3.6358764 0.3623024 0.47629842 0.97923684 0.21262354 -0.51601005 1.9439628 -0.21352153
-0.017197013 0.41186053 -0.81533754 -0.24947141 0.18059759 -0.44502658 3.69425 -0.4858457
0.09298809 1.5525689 -0.4604434 -0.66189265 -1.2531029 0.4417926 -0.33806404 0.21276537
0.08161798 0.4923216 -0.6190951 -0.4413146 -1.0997214 0.3170004 -0.40691078 0.7672185
-0.18009827 0.39432728 -0.64511526 -0.475329

sequential/batch_normalization_2/FusedBatchNormV3;StatefulPartitionedCall/sequential/batch_normalization_2/FusedBatchNormV3 f4 [76]
00000000: f092 79bf 1276 1dc0 e753 9fbf a0e1 4cbf
00000010: fa1a c2bf a8e9 6c3d 861c 9dbf e927 60bf
00000020: 6f23 c4bf c357 dcbf 40c2 0dc0 a482 05c0
00000030: 2769 72bf 8f4a 89bf f297 c0bf f36c 9ebf
00000040: 423d e2bf 9698 5bbf 8e6f 65bf 1570 d2be
00000050: ace1 86bf 763f ccbf 579a 56bf c4a6 39be
00000060: 746b debf a56f b8bf e9ee 43bf 42be adbf
00000070: d0b9 cdbf 1814 13bf f870 ccbf 5d84 87bf
00000080: 2500 8ebf afee 81bf 0508 92bf 73cd e2bf
00000090: 26ec 50bf 76c7 5fbf 5c89 69bf ceb7 92bf
000000a0: 8b0a e8bf ecb1 a6bf f417 34bf e20e 3b3f
000000b0: 7e94 9ebe 7992 96bf 8462 a8bf bb07 c5bf
000000c0: a6c1 c6bf e697 23bf 2679 20bf 6f4d 77bf
000000d0: b3e7 dcbe e7ef 01c0 3290 7abf 0a93 40bf
000000e0: 99be 39bf 98c9 80bf 4d2e 35bf 083e 00bf
000000f0: 5c46 2ebf f920 e8bf 31f6 aabf 8496 6abf
00000100: 93b5 a0bf 2893 c7bf 3432 b4bf a475 d6bf
00000110: 6649 bdbf a8d6 c2bf cd05 9fbf e662 c5bf
00000120: 36c1 b7bf cced 79bf 9f77 47bf c902 e4bf
-0.97489834 -2.4603314 -1.244748 -0.80031776 -1.5164483 0.05784002 -1.227433 -0.875609
-1.5323313 -1.7214283 -2.214981 -2.0860987 -0.946917 -1.0725878 -1.504637 -1.2376999
-1.7674944 -0.857797 -0.89623344 -0.41101137 -1.053762 -1.5956867 -0.83829254 -0.18130022
-1.7376542 -1.4409071 -0.7653642 -1.3573687 -1.607233 -0.57452536 -1.5971975 -1.0587269
-1.1093794 -1.0150965 -1.1408697 -1.7718948 -0.81610334 -0.8741373 -0.9122522 -1.1462343
-1.8128217 -1.3023047 -0.7034905 0.73069584 -0.30972666 -1.176345 -1.3155065 -1.5392984
-1.5527847 -0.63903654 -0.6268486 -0.9660253 -0.43145522 -2.0302675 -0.97876275 -0.75224364
-0.72556454 -1.0061522 -0.70773774 -0.5009465 -0.6807611 -1.8135062 -1.3356382 -0.9163592
-1.2555412 -1.5591784 -1.4077821 -1.6754651 -1.4788024 -1.5221758 -1.2423645 -1.5420806
-1.4355838 -0.97628474 -0.779169 -1.781335

sequential/dense/MatMul;StatefulPartitionedCall/sequential/dense/MatMul f4 [8, 76]
00000000: c38f d93d 2708 d7bf a674 84bf 7a61 b7bf
00000010: 4e77 0ebf 08cf 07bf 8a87 b83f 37f7 02c0
00000020: 55a8 3e3f 3d40 7fbf d9db 7b3f e207 22bf
00000030: 5a97 a1bf bf4a 1c3f cfbe 20bd 7783 223f
00000040: c22d 26bf 968f be3f a745 623f 9e7f b4bf
00000050: 17a8 303e 1aed 7bbf 4a49 3cbf 1c39 513f
00000060: b883 9fbf b8a3 943f f4f6 dfbf 156c 8fbe
00000070: 025c 2d3f a3b7 e13f 57f2 173f d4a5 9b3f
00000080: e1da 163f 3766 673f f261 f33e b537 a4bf
00000090: 6af0 5a3f 9d9e 9dbf b9ac edbe ad67 94be
000000a0: cee6 363f ba84 a93e 89b7 cc3e 7153 973d
000000b0: 34b3 d0bf fba8 1ebf 9e1c 2f3f b30c 1fbf
000000c0: 63ad ef3d f39f a5bd b5b6 843f b74f 853f
000000d0: 3efb 6fbd 53b6 33bf 6e85 7abf aa76 a3be
000000e0: a492 c93f 2d5e b8bf b344 6c3f 06a3 c0bf
000000f0: de65 47bf 2349 dabf c6a1 9b3f f57d f4bf
00000100: 0d2e 3a3f 83b1 7ebf 2c78 17bf 476d 40be
00000110: 514f 173f 9378 60bf b8c2 86bf dbf7 633f
00000120: 6285 9b3e 51a1 17c0 a393 f13e d598 123f
00000130: a7de c8be 9a75 a7bf 8bea 8a3f 3902 d93e
00000140: 5b84 edbf 3dd6 9e3f 58d3 c8bf df51 553f
00000150: eaf3 4fbf dfda b53f f55c ee3e e816 0f3e
00000160: 1c1b 1fbe 5a05 573f 65fe 9e3f f53b b1bf
00000170: d846 cbbe af80 1c3f 5320 043e a71d 6c3f
00000180: 313c 7c3f c087 8c3f f12a cebf 8d27 0a3f
00000190: 326b 0ac0 abc7 4f3f 71c7 15bf f3e3 c13e
000001a0: 7ed9 ecbf 172a 22c0 7c3d a23f 5848 1a3f
000001b0: 3c7f e7be cc07 333f a46b ae3f 72ee 23bf
000001c0: 23d1 293e d29b c0be bc7b 473f 631b 373f
000001d0: 1f7e 813e 64d0 a0bf e697 a73f c865 e53e
000001e0: 4d43 9a3a b50a 1ac0 b6b4 8bbf 433e 963f
000001f0: 9b6a f4bd ec1c 2ebd 483e 13be b82a c23e
00000200: b4ee adbf c861 d8bf d6bb 243f 42c8 bfbf
00000210: d66e 31be 4fc7 cebe e644 63bf d95b 753e
00000220: 974c 2abf 1d5d 45bf 7f07 5cbf a073 9fbf
00000230: d598 76be d7dc c4bf 69c6 063f 819d 543f
00000240: 51ca 3fbd 8769 b03f 3341 f0bf cc1c 733f
00000250: 4576 d33e be10 62bf 66c6 6abf 66c6 de3d
00000260: 7b33 94be f4d7 af3f 2354 8bbf 1591 a5bf
00000270: bd4f d83f ffa5 c43d 9af5 e73e 7a58 cb3b
00000280: 4b27 a6bf 42e2 5e3f 7270 09c0 dff6 993e
00000290: c351 c13e 9259 46bf 2d5f 60bf 828a 873f
000002a0: ec9a 82bf 892d 88bf 226c b93d 9ae9 86be
000002b0: d251 843f 1228 b23f aed8 913f 5a1e 543f
000002c0: 767b a3be a223 4cbf 8bef 9e3f 554d 073e
000002d0: 10bd 98be 0f1b 1d3f 5338 c0bf 9ac4 cc3d
000002e0: 9204 5fbf 64a5 a73f d672 33bf 2080 61bf
000002f0: 607e 64bf 40fe e9be d523 9ebf 1f74 69bf
00000300: 2173 0ec0 8b8f 16bd 4ad6 bebe 216f 03be
00000310: 0ae8 253f 4d73 e53f f7f5 09bd d410 713f
00000320: f575 8abf 8b7c 64bf bc37 a43f 58be 843f
00000330: 7bff 9f3f afdc 29bf ba30 cb3e 3f97 c2be
00000340: 87cd cb3e 3e6b dfbf a3d8 433f 13d1 4c3f
00000350: d1a7 8dbf 79ad d2be 605a d5bf 1721 e4be
00000360: 022b 94bf c90d 8f3e 5699 1dbf a4be c3bf
00000370: ed29 a3bf 6788 5abf 6c6f c7bf 80e4 213e
00000380: bc71 07c0 9c48 b93f 2503 983f 39ed e93d
00000390: 86d1 a0bf 399f 06bf 0803 953f 34f0 b03d
000003a0: 2b70 9abf b9c2 e23e 2211 39bf e624 ec3e
000003b0: ee3a a23f 8800 86be e79a fcbf 03d5 6dbf
000003c0: 5312 a3bf caa4 d5bf 6e0c c9bf 9a9b 9bbf
000003d0: 4b4e 383f 9658 1bbe 7ca5 63bf d9a8 a63f
000003e0: d1e2 fbbf 3ff8 3a3f 91ca 97bf c46b 47bf
000003f0: 2b22 473f 470f 243f 30eb 64bf 0570 b53f
0.106231235 -1.6799363 -1.0348098 -1.4326622 -0.55650795 -0.5305028 1.4416363 -2.0463388
0.74475604 -0.99707395 0.98382336 -0.6329328 -1.2624314 0.61051553 -0.03924447 0.6348185
-0.6491357 1.4887569 0.8838753 -1.4101446 0.17251621 -0.98408663 -0.7354933 0.81727767
-1.2462072 1.1612463 -1.7497239 -0.28012148 0.6771852 1.7634166 0.59354156 1.2159982
0.5892773 0.9039034 0.47535664 -1.28295 0.8552309 -1.231403 -0.4642084 -0.28985348
0.7144593 0.33109075 0.39983776 0.07388962 -1.6304688 -0.61976594 0.6840304 -0.6212875
0.11702993 -0.080871485 1.0368258 1.0414952 -0.058589213 -0.7020008 -0.9785985 -0.3192647
1.5747876 -1.440374 0.92292327 -1.5049751 -0.7788981 -1.705357 1.2158744 -1.9100939
0.7272652 -0.9948961 -0.5916774 -0.18791686 0.591054 -0.8768398 -1.0528173 0.8905007
0.303752 -2.369221 0.4718295 0.57264453 -0.3923237 -1.3082764 1.0852827 0.42384508
-1.8556017 1.240913 -1.5689497 0.8332805 -0.8123156 1.4207419 0.46555296 0.13973582
-0.15537685 0.8399254 1.2421385 -1.3846422 -0.39702487 0.61133856 0.12902956 0.92232746
0.98529345 1.0978928 -1.6106855 0.539666 -2.1627927 0.81164044 -0.5850745 0.37869224
-1.8503873 -2.533819 1.2675014 0.6026664 -0.4521426 0.6993377 1.3626599 -0.64035714
0.16583686 -0.3761888 0.7792318 0.71526164 0.25291535 -1.2563596 1.3093231 0.44804215
0.0011769325 -2.4069035 -1.0914524 1.1737751 -0.11934396 -0.04250805 -0.14379227 0.37923217
-1.3588471 -1.690484 0.64349115 -1.4982989 -0.17327437 -0.40386435 -0.88777006 0.23960818
-0.66523117 -0.77095205 -0.8594894 -1.2457161 -0.24081738 -1.5379895 0.526465 0.8305283
-0.046823803 1.3782204 -1.8769897 0.94965816 0.4130117 -0.88306797 -0.9170898 0.10877685
-0.28945526 1.3737779 -1.0885051 -1.29349 1.6899334 0.09601974 0.45304567 0.0062056156
-1.2980741 0.8706399 -2.147488 0.3007116 0.37757692 -0.77480423 -0.87645227 1.0589144
-1.0203528 -1.0638896 0.09053828 -0.263501 1.033747 1.3918478 1.139425 0.8285881
-0.3193013 -0.7974187 1.2416853 0.13213094 -0.29831743 0.61369413 -1.5017189 0.09998436
-0.8711635 1.3097348 -0.700971 -0.8808613 -0.8925533 -0.4570179 -1.2354685 -0.9119281
-2.225777 -0.036757987 -0.37272865 -0.12835361 0.6480719 1.7925812 -0.033681836 0.941663
-1.0817248 -0.8925254 1.2829509 1.0370588 1.2499841 -0.6635236 0.39685613 -0.38006017
0.39805242 -1.7454603 0.76502436 0.8000652 -1.1066839 -0.41147974 -1.6668205 -0.44556496
-1.1575625 0.27940205 -0.615621 -1.5292554 -1.274717 -0.85364383 -1.5580878 0.15809822
-2.1163168 1.4475284 1.187596 0.114222 -1.2563941 -0.52586704 1.164155 0.08639565
-1.2065481 0.44289187 -0.7229177 0.461219 1.2674234 -0.2617228 -1.9734772 -0.92903155
-1.2739967 -1.6690915 -1.5706918 -1.2156861 0.71994466 -0.15170512 -0.88924384 1.3020278
-1.9678594 0.73035043 -1.1858693 -0.7789881 0.7778651 0.6408581 -0.8942137 1.4174811

sequential/batch_normalization_1/FusedBatchNormV3;StatefulPartitionedCall/sequential/batch_normalization_1/FusedBatchNormV3 f4 [76]
00000000: 802b 6e3c 40b8 753f b008 ea3e c446 01bf
00000010: 36de b93f 299a 08c0 8070 eb3c a275 86bf
00000020: 3c0d 443f b494 d1bd 8197 ddbe de68 e33e
00000030: 2879 06c0 c0bb 593c ece2 b6bf 514b aabf
00000040: 71e9 d9bf 9098 0bbe 952a 0f3f 582b 0a3e
00000050: 04d6 323f e0aa a8bc d4a9 903f e009 6c3e
00000060: 0cf2 e3bf 84c0 c3bf 0e86 c2bf a54a 9bbf
00000070: 40a7 703e fa58 1ebf 5722 e3bf d0e4 863e
00000080: 049b 84be 87f3 803f 6258 a13f b897 15be
00000090: e8d8 963e 20e3 87bf bc1f 69bf 22b7 903f
000000a0: 70b1 b6be 9d74 89bf 94c8 46bf 9c14 a4bf
000000b0: 62f1 bc3e 8cf1 a53e 7aa2 a3bf 3e46 53bf
000000c0: 4ac1 a23e b839 92be 787f a53e 08a6 143f
000000d0: 5414 0a3f 8819 703e 6c07 e73e b881 00bf
000000e0: 7ce5 ba3e fc88 31c0 4c76 ddbd 00da 0bbb
000000f0: bcb8 e9bf 5606 013f 48cb d13e 901a 98bd
00000100: 7828 44bf a406 3b3e 3b16 14c0 709e 923d
00000110: 3c09 dabf 0484 6dbf 8564 d7be af58 9c3e
00000120: 44be 24bf 0adc 1d3f 8ef8 263f 509d cabe
0.014536738 0.9598427 0.45709753 -0.50498605 1.4520938 -2.1344092 0.028740168 -1.0504649
0.76582694 -0.10233441 -0.4327965 0.44415945 -2.1011448 0.013289392 -1.4288001 -1.3304235
-1.7024366 -0.13632417 0.5592435 0.13493097 0.6985781 -0.020589292 1.1301827 0.23050642
-1.7808242 -1.5293126 -1.519716 -1.2132155 0.23501301 -0.6185452 -1.7744855 0.26346445
-0.25899518 1.0074319 1.2605097 -0.14608657 0.2946236 -1.0616188 -0.9106405 1.1305888
-0.3568225 -1.0738713 -0.7764981 -1.281879 0.3690291 0.32410848 -1.2783959 -0.82529056
0.31788093 -0.2855966 0.32323813 0.58065844 0.5393727 0.2344724 0.4512285 -0.50197935
0.36503208 -2.7739859 -0.10813579 -0.0021339655 -1.8259501 0.5040029 0.40975404 -0.074269414
-0.7662425 0.18264252 -2.3138568 0.07159126 -1.7034068 -0.92779565 -0.42068878 0.3053641
-0.6435282 0.6166388 0.65223014 -0.39573145

sequential/conv2d/Conv2D;StatefulPartitionedCall/sequential/conv2d/Conv2D f4 [76, 3, 3, 1]
00000000: a9cd f13c 865c 40bc e1e7 043c 3319 c23c
00000010: 7291 52bc b260 b5bc 433f 003d a1cb c6bc
00000020: cb1b c1bc 5e41 b53d b8c8 5fbe 9c4e 88bd
00000030: e183 193c b0ca cfbd cc95 e53d b215 963c
00000040: 2e59 ac3d 1c18 4c3e 7942 0b3d 4b8a 0f3d
00000050: 2ec6 b1bc c65e 633d ffb2 fd3c 5f33 34bd
00000060: e0d9 66bb 466e 70bc 963d a5bd 4ce4 72bb
00000070: a4e0 c2b9 8cd9 0dba a3d4 90ba b0cd 0c3b
00000080: 04b1 853b 0f0b 9d39 67ee f13a e4ea 1d3b
00000090: 2acf 32bd aee7 52bd 5658 1a3e 8529 603d
000000a0: b199 0fbe 85a8 c43d ce8b 1a3e 2858 ddbd
000000b0: dcf3 ff3d 2b77 d3bc c441 813b ffe1 4fbc
000000c0: 56c2 dcbc 96c2 473d f3c3 903d 4717 5bbc
000000d0: 4c0b a33d 9f0e 433d 5252 9d3d 3929 ba3d
000000e0: 4317 86bd 60b1 963d 138b 90bd bed9 87bd
000000f0: 85ca 10bc 71cc c3bd b3d6 663d f83a 4b3e
00000100: 2d5c ae3e 1509 773e 0eec dfbd 4e0b c93d
00000110: f598 883e 7199 5cbe 3567 c7be 75e6 d4be
00000120: 092d 60bc 828d 3abc 2d7e 713a 4e66 79bc
00000130: a9c4 2abc f940 943c 1e8a 8abc 094c 7ebc
00000140: 85fe 9a3c 274d d3bc 0737 a13d 95d4 61bc
00000150: 0dc1 09bd 3fda 943d 7f22 09bd 16f9 1cbc
00000160: 7d64 883d 9954 90bd 7b97 2cbd f84f 04bd
00000170: 30a5 c1bb d6b8 7cbc 7809 98bd 7f5a 433c
00000180: a272 b73c c60e e9bc e20d 4e3d b25a 403c
00000190: 5b08 c6bc 3ec6 94bc 1d83 43bd 67c0 0cbd
000001a0: 89de febb 7516 45bd 93eb 2abc 09b7 2fbc
000001b0: 40ac b0be 7059 67bc 1435 093e 5f7b bebb
000001c0: cdc6 7cbd 8a64 33bd 122d 943e f2b8 ad3d
000001d0: 1576 28bd 3f52 053d d0c4 193e 0c67 383e
000001e0: 7fbd b43c 571b 8cbd 8412 4a3c afe7 a13d
000001f0: 32c4 fc3d 90ee e73d c3bd 933d 67c5 76bd
00000200: b473 e83c e463 073d 75b0 87bd 7757 49be
00000210: 5ce6 863a a27a a0bd a883 46be ab14 103e
00000220: b08f 193e 1c66 39bd debe 20bb 0e91 d2bd
00000230: 8e92 8e3d 3020 26bc 3971 29be 0f63 99bb
00000240: 454a b83c 17ac 7abc d8bc 28bc 1861 293d
00000250: 067c 3cbb 235c 18bd 88b5 0f3d c860 68bc
00000260: a21f 1cbd 33cc a8bd a6f0 20be e9de 52be
00000270: c347 cd3d 42df ee3d ce26 7cbc edd3 233c
00000280: 2084 f13e f49d 923d 1d4b d43c bfe4 4f3b
00000290: 09fb bbbc 6bb1 443d bee4 063d 46bf b1bc
000002a0: d996 a93c 4a33 8b3c 2072 85bd b78f 053b
000002b0: 3d6b 8bbd b108 813d e8a0 333c cc6a 19be
000002c0: 6d6f 833d 9e70 a1bc f31a 07be ef9c f33d
000002d0: 1712 713b 5da4 9dbb 87d2 d8b9 9415 023c
000002e0: d315 13bc 3352 6a3b f460 913b a55a 0bbc
000002f0: b119 7739 7be0 cd3c 8c57 3c3d 2038 2f3c
00000300: d4b2 a73c 5009 91bd 2192 0bbd 9dce 0a3d
00000310: f9ad 0fbe ccaa 2fbc 4025 ad3c 2a0e a23d
00000320: 98aa 00bc 0568 053d 71c7 7bbe f252 a1be
00000330: 30f5 08bd ea38 2dbe ed04 0b3d 88e3 243e
00000340: beb5 403e 35df 1cbd 0646 aa3d 531a 60bc
00000350: a11c efbd aaa2 06be c37d 6abd b547 c23d
00000360: 67e9 863e fb11 9cbd c85f 4abe af6f c2bc
00000370: a3d2 4b3d 500a b6bc dfa3 48be ddfa 5c3e
00000380: 227e 0f3e a631 92bc caac b23d 8390 a93d
00000390: 16c5 92bd c325 e0bb 92c7 253e 5021 8dbc
000003a0: a16f a6bd 576f 963c 95ff a63d 1b65 c63c
000003b0: 3865 8abd 1514 2a3c 289d 6ebc b6fb d33b
000003c0: 916d 773c 2807 74bd fb2c 00bd bfdf 89bd
000003d0: 9746 963e 2f10 18be 12d6 3cbd d94e f43d
000003e0: 788f 963e f2f0 8d3c 5e2b 073e 6f2f 763e
000003f0: aebc 1bbc 5f24 093e 7e47 7b3d a442 a53b
0.029517012 -0.011740809 0.008111925 0.023693657 -0.01285206 -0.022140834 0.03131033 -0.02426702
-0.023572823 0.088503584 -0.21853912 -0.066556185 0.009369821 -0.101460814 0.11210212 0.018320892
0.08415447 0.19931072 0.03399894 0.035043996 -0.021700945 0.055510305 0.030969141 -0.043994304
-0.0035225078 -0.014674729 -0.08068387 -0.0037062345 -0.00037169934 -0.000541114 -0.0011049699 0.0021484904
0.00407994 0.00029953613 0.001845789 0.0024096305 -0.0436546 -0.05149048 0.1507276 0.054727096
-0.14023472 0.09602455 0.15092394 -0.1080783 0.12497684 -0.02581366 0.0039446075 -0.012688159
-0.026948135 0.048769556 0.07068624 -0.013372249 0.07961139 0.047621366 0.07681717 0.09089894
-0.065474056 0.0735805 -0.07057776 -0.06633328 -0.008837347 -0.095604785 0.056357097 0.19846714
0.340547 0.24124558 -0.10933696 0.09816609 0.26679197 -0.21542908 -0.38945928 -0.41582075
-0.013682612 -0.011386277 0.0009212222 -0.015222145 -0.010422864 0.018097388 -0.016911563 -0.015521058
0.018920192 -0.025793625 0.07871824 -0.013783594 -0.033631373 0.0726819 -0.033480164 -0.009580871
0.066597916 -0.07047386 -0.04213665 -0.032302827 -0.0059095845 -0.015424928 -0.07423681 0.011923431
0.022393528 -0.028449427 0.05030621 0.011740373 -0.024173906 -0.018160935 -0.04773246 -0.034363177
-0.007777993 -0.04811712 -0.010432142 -0.010724791 -0.34506416 -0.014120445 0.13399154 -0.005813047
-0.06171303 -0.043797053 0.28940636 0.08482541 -0.041128237 0.03254914 0.15016484 0.1800806
0.022063015 -0.06841152 0.012333516 0.07905518 0.12342109 0.11324799 0.072139286 -0.06024685
0.028375484 0.033054247 -0.066254534 -0.19662271 0.0010292041 -0.0783589 -0.1938616 0.14070384
0.14996219 -0.045263395 -0.0024527828 -0.10281573 0.06961547 -0.01013951 -0.16547097 -0.004680998
0.022496352 -0.0152998185 -0.01029893 0.04135236 -0.0028760447 -0.037197243 0.03508523 -0.014183231
-0.038116105 -0.08242073 -0.157168 -0.20592846 0.10023453 0.11663677 -0.015390111 0.0099992575
0.47171116 0.071590334 0.025914723 0.0031722037 -0.022946851 0.04802076 0.03293299 -0.021697652
0.020701813 0.01699223 -0.06515908 0.002037985 -0.068075635 0.06300486 0.010963656 -0.14982146
0.06417737 -0.01970702 -0.13193874 0.11895167 0.0036784464 -0.0048108534 -0.00041355586 0.007939715
-0.008977371 0.003575456 0.0044366065 -0.008505498 0.00023565326 0.025131455 0.04598193 0.010694534
0.020471014 -0.07081854 -0.034074906 0.033888448 -0.14031209 -0.0107218735 0.021135926 0.07912858
-0.007853173 0.032569904 -0.245878 -0.31508595 -0.033436954 -0.16916242 0.033940244 0.16102421
0.18819329 -0.038298804 0.08314137 -0.013678151 -0.116753824 -0.13147989 -0.057248842 0.09486333
0.26349947 -0.07620617 -0.197631 -0.023734896 0.049761426 -0.022221714 -0.19593762 0.21580072
0.1401296 -0.01784594 0.08724363 0.082795165 -0.071664974 -0.006840439 0.16189411 -0.017227799
-0.0812676 0.018363638 0.08154217 0.024218133 -0.06757587 0.0103807645 -0.014563836 0.0064692153
0.015101806 -0.059577137 -0.031292897 -0.06732129 0.2935073 -0.14849924 -0.04610259 0.119291015
0.29406333 0.017326806 0.13200137 0.24041532 -0.009505434 0.1339278 0.061347477 0.0050433446

sequential/depthwise_conv2d/depthwise;StatefulPartitionedCall/sequential/depthwise_conv2d/depthwise f4 [1, 3, 3, 76]
00000000: 0ed5 49bf 9b37 233e 8e73 7abd 6879 8abd
00000010: 34cb 3cbe 8435 043f e9c9 8ebf 84fb bbbe
00000020: 384b 33be 2a5a 47be 1dde 7d3e bf27 d6be
00000030: 9a92 943f 4807 82bf db3b 11bf 87c4 02bd
00000040: 4d8f 4cbe deb6 293f c500 d33d 6412 f83d
00000050: f5a8 fd3d c94a 553f dd4d 77be e680 aabf
00000060: af58 5e3f f1da 723e 09d5 8cbf d0cc 6abf
00000070: e43b e7be 1b35 6a3f 058e 3fbe 942e d9be
00000080: 15f3 27bf 9c3c 793f 4c96 813e bdf6 7c3f
00000090: 6a88 b7be 956b fe3e 63e8 3a3f 4f21 163d
000000a0: 6982 bdbf f90b 063e 3070 153f 1c1c 2dbf
000000b0: ebaa 1c3f bde6 843e 3239 873f a371 f63e
000000c0: 736b 9ebd 8b5d 1a3f da0d 243f 7dd9 7e3d
000000d0: 6551 59bd 9210 44bd b291 aabf 2412 6f3d
000000e0: fccb dc3d dda1 b9bd 502e 093d 6b36 55be
000000f0: d8e1 25bd bdaf 50bf 83ef a8bf a49c 2e3f
00000100: 9540 783e 9439 7cbf 8f78 3ebe b75d 60bf
00000110: 5d95 d6be b1fd 71be d52d 233f 67be 823f
00000120: 9a00 043f a061 f03e 0874 4bbd 39dd d7bd
00000130: b356 0d3f ab50 223f 248b ef3d 808d bd3d
00000140: ff7a 2a3f 2d72 563e 0135 e3be f02c 01be
00000150: 8f08 483e 7702 14be f416 e13d 3ee2 09bf
00000160: 5d49 30bf f4ef 5cbf c6c4 2bbf a485 d13f
00000170: d928 30bf d393 cdbd 79e2 ba3e f455 65be
00000180: 4686 813e 09bc 04bf 87d5 1e3f ed32 ccbe
00000190: 6cb3 17bf 9278 1fbf ca6c 77bf 28d0 bf3e
000001a0: d994 17be feb5 003f 98aa 433e 1e27 f63e
000001b0: e42b da3d 9e4e 5a3f 9745 9c3d 94ed 883f
000001c0: 4774 e13e 3386 713e c77e 713f 90ad 01be
000001d0: 3ec1 ca3e 1f33 28bf 5f4a 08bf a2a3 26bf
000001e0: d09d 29bf 3b6a ac3f 1fd2 b23d fae8 663d
000001f0: b3af b23e 5bfb 453f 671b 9cbe cb05 133e
00000200: 2a51 0b3f 8b2e 013e 1c20 3dbe 0411 0abe
00000210: ce60 9c3d 258f 0e3f 06ef c3bd 6eb2 033e
00000220: ba40 323f 57d2 82be cdc8 853e e1c6 5dbf
00000230: b23b 693e 2580 5ebd fdf7 053e c49d a7be
00000240: 950d 65bf 559a 913f 24d1 a23d 420f e2bc
00000250: 1ff1 9d3f fbdb 1b3f 8922 b23c 94a3 8c3f
00000260: 812e f63d c488 8dbf 1d08 933d b106 45bc
00000270: 37d7 aebf 2fb2 03be ef6a 143e 735c 86bf
00000280: e61c 2abf be5e 933f 83f8 4b3e 80e8 3838
00000290: d88f babc f47b efbe 1221 18bf 9865 e63e
000002a0: efff 333d 3587 97bd a752 d63e 39e8 68be
000002b0: 6fd4 913d b3e9 6a3e 087c 263f 01ec 283f
000002c0: d801 e33e 9471 c4be eaac be3e b7be d8be
000002d0: f580 4f3f bee0 0ebf 37fc 5dbe c55f aa3f
000002e0: 7d2b f6bd c34b 97be e51e 4bbf b770 52be
000002f0: 311e 643e 7330 df3e 9270 673f 992d a3be
00000300: ac03 013c 9ebf d43e 840b 0ebf d678 063f
00000310: 55a7 a63e fac9 9e3e 44b2 053e 5261 afbf
00000320: 29b9 bf3d bf07 b23d a357 4c3e b6f5 793d
00000330: 46f6 29bf b520 033e 8f3c b93d 97f3 103d
00000340: 4244 6a3e 3e9d a03f 4aaf a7be 578d 5a3d
00000350: ce68 3b3e 1d30 4d3e 3927 4d3e 3283 43bf
00000360: 0bdc 613f 9a6a 593f e012 65be e8a9 623e
00000370: 84b3 373f 2211 60bf 1a7f 62bf 6de4 a1bd
00000380: d64d 4fbe 06ab a6be c792 83bc 8a79 b2be
00000390: 7a08 adbb 4d51 773e ec97 b1be 8a7a 983d
000003a0: 87fb c8be 880f 153b 095b d6bd d041 dabe
000003b0: b8f0 503e 4757 7a3e c972 a23d 98c9 69bd
000003c0: 8b9d 14be b410 7e3b 9c18 4cbe 8a28 8f3a
000003d0: cb2e f23d 26da b43e f7e5 bbbd b619 c2bd
000003e0: 2981 3abd c607 3c3f 7709 813e 2b28 c03e
000003f0: 74ec 813e d24d af3e 54db c93e 09cf be3d
-0.7884072 0.1593918 -0.061145358 -0.06761438 -0.18436891 0.5164416 -1.1155368 -0.3671533
-0.17509162 -0.19467989 0.2479176 -0.418272 1.1607239 -1.0158472 -0.5673196 -0.031925704
-0.1997654 0.6629466 0.10302881 0.12112883 0.123857416 0.8331724 -0.24150796 -1.3320587
0.8685407 0.23716332 -1.1002513 -0.9171877 -0.4516288 0.9148728 -0.1870652 -0.4241835
-0.6560529 0.9735811 0.2530998 0.9881399 -0.35846263 0.49691454 0.73010844 0.03665286
-1.4805423 0.13090505 0.5837431 -0.67621017 0.611983 0.2595729 1.056433 0.48133573
-0.07735338 0.60298985 0.64083636 0.06221913 -0.05305614 -0.047867365 -1.3325713 0.05836691
0.107810944 -0.09064076 0.033491433 -0.2082154 -0.040498585 -0.81518155 -1.3198093 0.68207765
0.24243386 -0.9852536 -0.18600677 -0.87643 -0.4191083 -0.23631932 0.6374181 1.0214356
0.5156342 0.46949482 -0.049671203 -0.10540242 0.5521042 0.6340434 0.11696461 0.092555046
0.6659393 0.20941992 -0.44376376 -0.12614799 0.19534515 -0.14454065 0.10990706 -0.53860843
-0.68861943 -0.8630364 -0.6709713 1.6368909 -0.6881233 -0.10037961 0.3650091 -0.2239607
0.25297755 -0.5184942 0.62044567 -0.39882603 -0.5925815 -0.6229335 -0.96650374 0.37463498
-0.14802875 0.502777 0.19108045 0.4807672 0.10652903 0.8527621 0.07630461 1.0697503
0.44034025 0.23586349 0.9433407 -0.12663865 0.39600557 -0.65703005 -0.5323848 -0.65093434
-0.6625643 1.3469919 0.08731484 0.056374528 0.34899673 0.77336663 -0.30489656 0.14357679
0.5442072 0.12615411 -0.1846928 -0.13483053 0.076356515 0.5568717 -0.095670745 0.12861034
0.69630015 -0.25551102 0.2612976 -0.8663159 0.22776678 -0.054321427 0.13082881 -0.32737553
-0.8947385 1.1375223 0.07950047 -0.027595166 1.2339209 0.6088254 0.021744983 1.098742
0.12020589 -1.1057363 0.07179282 -0.012025521 -1.3659428 -0.1286094 0.14493917 -1.0496963
-0.66450346 1.1513288 0.19919018 4.408555e-05 -0.022773668 -0.46774256 -0.5942546 0.44999385
0.04394525 -0.073988356 0.41859934 -0.22744836 0.071205966 0.22940712 0.65033007 0.65985113
0.44337344 -0.38367903 0.37241298 -0.42333004 0.8105615 -0.5581168 -0.21678244 1.3310477
-0.120200135 -0.2954999 -0.79344016 -0.2055081 0.22277142 0.4359165 0.90406144 -0.31870726
0.007874411 0.41552442 -0.5548632 0.5252813 0.3254954 0.3101347 0.13056284 -1.3701575
0.09361488 0.08692884 0.19955306 0.061025344 -0.6639141 0.12805445 0.09044754 0.035388555
0.22877601 1.2547987 -0.32750922 0.05335745 0.18301699 0.20037885 0.20034494 -0.76372063
0.88226384 0.84928286 -0.22370481 0.22135127 0.71758294 -0.8752614 -0.8847519 -0.07904897
-0.20244536 -0.32552356 -0.0160612 -0.34858352 -0.0052805515 0.24152108 -0.3468622 0.074452475
-0.392544 0.0022744853 -0.10466582 -0.42628336 0.20404327 0.24447356 0.0793205 -0.05707702
-0.14513223 0.003876728 -0.19931263 0.0010922116 0.11825331 0.35322684 -0.09174722 -0.0947756
-0.045533333 0.7344936 0.25202534 0.37530646 0.25375712 0.3423906 0.39425147 0.093168326

sequential/conv2d_1/Conv2D;StatefulPartitionedCall/sequential/conv2d_1/Conv2D i1 [76, 1, 1, 76] scale=0.0059137456 zero_point=0
00000000: fded 1400 faf3 f00c 0016 f906 ea25 f512
00000010: fb1d f70f 00fb 14f9 10e6 ef0b f805 0105
00000020: fe00 1a07 08f2 0f02 edd8 fcf6 030f 10ee
00000030: 01fa f8fe f500 d3fe fa0b fffd f5fb f8ed
00000040: f6fa fef1 e903 f8f1 f81d 00ee 0406 0efb
00000050: 23f7 fc18 ffeb f508 e3db 0503 1f09 0bf4
00000060: 01d1 fe05 2afa 0c04 15fc 09fe 1502 1415
00000070: fc01 f204 d1fc e3f3 0400 3008 260a 1cf7
00000080: ef01 dfff fe01 ec05 0c00 eb00 2506 f6de
00000090: 03d0 f4e9 ec21 0810 e4e2 0404 fb0f 101c
000000a0: ea02 f407 01e7 01ff f301 f50c 0c02 fd29
000000b0: f7f3 02f1 0510 11ed 0711 0e0b fd05 070b
000000c0: e6f3 1c09 0a17 08ce f90b f5fc fdfc a204
000000d0: f905 00fe 0304 110d 00fd 0a00 03f5 fa32
000000e0: f7f2 021f 07eb 04ff eff2 021f edf4 fade
000000f0: 170a f710 13de ff17 01ca ffff 0bf9 0b15
-0.017741237 -0.11236116 0.11827491 0.0 -0.035482474 -0.0768787 -0.09461993 0.07096495
0.0 0.1301024 -0.04139622 0.035482474 -0.1301024 0.21880859 -0.0650512 0.10644742
-0.029568728 0.17149863 -0.05322371 0.08870618 0.0 -0.029568728 0.11827491 -0.04139622
0.09461993 -0.1537574 -0.10053368 0.0650512 -0.047309965 0.029568728 0.0059137456 0.029568728
-0.011827491 0.0 0.1537574 0.04139622 0.047309965 -0.08279244 0.08870618 0.011827491
-0.11236116 -0.23654982 -0.023654982 -0.059137456 0.017741237 0.08870618 0.09461993 -0.10644742
0.0059137456 -0.035482474 -0.047309965 -0.011827491 -0.0650512 0.0 -0.26611856 -0.011827491
-0.035482474 0.0650512 -0.0059137456 -0.017741237 -0.0650512 -0.029568728 -0.047309965 -0.11236116
-0.059137456 -0.035482474 -0.011827491 -0.08870618 -0.13601615 0.017741237 -0.047309965 -0.08870618
-0.047309965 0.17149863 0.0 -0.10644742 0.023654982 0.035482474 0.08279244 -0.029568728
0.2069811 -0.05322371 -0.023654982 0.1419299 -0.0059137456 -0.12418866 -0.0650512 0.047309965
-0.17149863 -0.21880859 0.029568728 0.017741237 0.18332611 0.05322371 0.0650512 -0.07096495
0.0059137456 -0.27794605 -0.011827491 0.029568728 0.24837732 -0.035482474 0.07096495 0.023654982
0.12418866 -0.023654982 0.05322371 -0.011827491 0.12418866 0.011827491 0.11827491 0.12418866
-0.023654982 0.0059137456 -0.08279244 0.023654982 -0.27794605 -0.023654982 -0.17149863 -0.0768787
0.023654982 0.0 0.2838598 0.047309965 0.22472233 0.059137456 0.16558488 -0.05322371
-0.10053368 0.0059137456 -0.19515361 -0.0059137456 -0.011827491 0.0059137456 -0.11827491 0.029568728
0.07096495 0.0 -0.12418866 0.0 0.21880859 0.035482474 -0.059137456 -0.20106736
0.017741237 -0.2838598 -0.07096495 -0.13601615 -0.11827491 0.19515361 0.047309965 0.09461993
-0.16558488 -0.17741236 0.023654982 0.023654982 -0.029568728 0.08870618 0.09461993 0.16558488
-0.1301024 0.011827491 -0.07096495 0.04139622 0.0059137456 -0.14784364 0.0059137456 -0.0059137456
-0.0768787 0.0059137456 -0.0650512 0.07096495 0.07096495 0.011827491 -0.017741237 0.24246357
-0.05322371 -0.0768787 0.011827491 -0.08870618 0.029568728 0.09461993 0.10053368 -0.11236116
0.04139622 0.10053368 0.08279244 0.0650512 -0.017741237 0.029568728 0.04139622 0.0650512
-0.1537574 -0.0768787 0.16558488 0.05322371 0.059137456 0.13601615 0.047309965 -0.2956873
-0.04139622 0.0650512 -0.0650512 -0.023654982 -0.017741237 -0.023654982 -0.5558921 0.023654982
-0.04139622 0.029568728 0.0 -0.011827491 0.017741237 0.023654982 0.10053368 0.0768787
0.0 -0.017741237 0.059137456 0.0 0.017741237 -0.0650512 -0.035482474 0.2956873
-0.05322371 -0.08279244 0.011827491 0.18332611 0.04139622 -0.12418866 0.023654982 -0.0059137456
-0.10053368 -0.08279244 0.011827491 0.18332611 -0.11236116 -0.07096495 -0.035482474 -0.20106736
0.13601615 0.059137456 -0.05322371 0.09461993 0.11236116 -0.20106736 -0.0059137456 0.13601615
0.0059137456 -0.31934226 -0.0059137456 -0.0059137456 0.0650512 -0.04139622 0.0650512 0.12418866

sequential/depthwise_conv2d_1/depthwise;StatefulPartitionedCall/sequential/depthwise_conv2d_1/depthwise f4 [1, 3, 3, 76]
00000000: 2533 583f c8dc 44bf 7221 05bf 17c2 4c3f
00000010: 947f 7f3f 0063 57bf d0cb 2ebf dd95 423f
00000020: 4aba 293f 2855 e63e 0bf2 063f 12b3 9bbe
00000030: 232f 303f 7bdb 13bf aa45 4dbf 18c0 07bf
00000040: 8b5d 8f3f c7ea 13bf f812 873e 6256 67be
00000050: 135a 4c3f 26b8 6bbd 49dd 71bf bcd0 593f
00000060: a317 87bd 9e74 0fbe 08b9 83bf 93b9 a0be
00000070: 093d 23bf 5ea9 41bf c722 a5bf d629 d8be
00000080: 5463 a9be 6190 6fbe 93e1 8b3e 121a 203f
00000090: 8b0b 49bf 7b01 37bf 1c08 a1bd df3e f53e
000000a0: 72d9 a8be 5c55 193f 6e6b 4a3f 4bb5 e93e
000000b0: 604e 95bf f21e 3ebf 7782 443e 994b 593f
000000c0: 2aa7 643f f8a4 19bf 920e d8bd adb3 33be
000000d0: 4d37 b2be 7c72 ecbe 775d 743e 8edc 2ebf
000000e0: 7511 10bf a758 58bf 98ec 413d f003 cabe
000000f0: 21c8 0c3f 8f95 81bf 55f2 053f 29b4 62bf
00000100: 1e35 cbbe 92e9 cbbe 4dc8 563f 5999 fdbe
00000110: 054b 6b3f 8e30 633f 8fcd 03bf 9f96 43be
00000120: cbfc 0fbf b2a5 35be c763 633e 922d c1bd
00000130: f33e a9be 124f 19bf 006e ebbd fd31 643f
00000140: 3c5d 133f 6dfd babf fd65 473f bfc9 aebe
00000150: bec2 ac3e 0cf6 ea3e fd6f 76bf aca7 923e
00000160: 2051 363f fba9 043f 06fa 0dbf 7543 603e
00000170: ff0f debe 466a 873e 0b83 2fbf 316d ddbe
00000180: bdac 2f3e 009a 933e ce95 f4bd 77a6 d83e
00000190: ffd2 27bf 1e7a 42be 91c5 753e 95b5 a53f
000001a0: 0950 15be e1a1 93be c632 8f3f afe0 fabe
000001b0: c006 2fbe ef99 0dbf 5e02 b03e 7c59 eabe
000001c0: d4d0 4bbe cc82 36bf b68d 13bf 26b5 653d
000001d0: c81e 643e 1d26 9bbe 3ebb 273e c92c 94bf
000001e0: b83d cbbd 18cb 953c f4df b03f 82a1 8bbf
000001f0: 686b a7be 0c42 50be d4b7 3e3f bad4 d23e
00000200: b77f 20be 3b1c eb3e 0f1f cdbb 046c 2ebe
00000210: 8878 82bd debe d9be 629b 14bf 2e05 073f
00000220: 81d8 82bf 16a8 193f cb6d 98bf c977 6b3e
00000230: 8763 313f d0a4 f93e 10ef 363f 8edb 80bf
00000240: aae4 1d3f 8b51 bf3d 23e9 7bbf 9337 0a3f
00000250: db5d 573c 00a8 da3e aa82 a43f e2b6 883f
00000260: fc07 463e 2254 a73d d0ac e5be 4874 1abf
00000270: 004b 473f 3e0b fb3e e515 403f 022c 11bf
00000280: 3879 1fbe 93d1 ef3e 761c 1f3f 5778 2d3f
00000290: c529 073f dbb6 8fbe a416 953c 0e0d 50bf
000002a0: 2ca6 8dbd 44e2 ea3e b371 84bf 7558 653f
000002b0: d20e db3e e764 133f 4248 cb3e 1d14 6a3f
000002c0: e9f6 9abf e4a1 6bbf e56d 813f d0bf e0be
000002d0: 2bc8 94bc 076a 67be 8363 983e 6b26 1abf
000002e0: 6458 95bf 4260 16bf eb2c 68bf 7d84 2bbf
000002f0: 5e9c 5b3f 2b0d 1abf 163a 543f c8cc 8abd
00000300: 2dbf 3abf c8aa 33bf 8427 14bf e22d 743e
00000310: da7c bf3e 154b 443e a537 6bbf 0bd3 b7bd
00000320: 345c 20bf 4621 f33d a97f ad3f 9b37 f0bf
00000330: 8b17 8d3f 03be 963e d4e4 b23e 997a 723f
00000340: 5b4c e9be a862 e73f 8651 df3e 22b7 d13e
00000350: b3fa 39bf 7943 9fbd 23a0 2cbf a95d 743e
00000360: bfaa 313f 005a 3a3f 261f 393e 844a 0a3e
00000370: 6569 b7be a7f9 7dbe f25f 34bf 933a 103e
00000380: 8035 943f c902 6a3f 0e57 e8bd 0bcc 23bf
00000390: 0834 d03e a8b8 33bf 1fbc 0fbf 7b84 453f
000003a0: 6d88 4c3f 1c93 afbe f299 2fbf 842c 193f
000003b0: 6225 283f 7e37 e3bd 5fc1 e53e c76f 9cbe
000003c0: 43c0 fc3e ea88 d1be 4398 22bf 706f e5be
000003d0: 1241 cb3e 55ee 14bf 453e 133e 6400 cebe
000003e0: 1d26 023f e6ac 073f 5495 00bf 4563 013c
000003f0: d5c2 90be f727 6dbe 737f 8ebe 8da9 4f3d
0.8445304 -0.76899385 -0.5200416 0.7998366 0.99804044 -0.84135437 -0.68279743 0.76009923
0.6629988 0.44986844 0.5271308 -0.30410057 0.68821925 -0.57756776 -0.80184424 -0.53027487
1.1200422 -0.57780117 0.2638166 -0.22591546 0.7982494 -0.057548665 -0.9447828 0.8508413
-0.06596305 -0.1400933 -1.0290842 -0.31391582 -0.6376501 -0.7564906 -1.2901238 -0.42219418
-0.33083594 -0.2339492 0.27320537 0.6253978 -0.7853324 -0.71486634 -0.07862875 0.4789953
-0.32978398 0.59895873 0.79070175 0.45646128 -1.1664543 -0.7426597 0.19190393 0.8488098
0.8931757 -0.6001735 -0.10549654 -0.1754901 -0.34807816 -0.46181095 0.23863779 -0.6830529
-0.5627664 -0.8451027 0.047344774 -0.3945613 0.5499287 -1.0123767 0.52322894 -0.8855615
-0.39688963 -0.39826638 0.83899385 -0.49531057 0.91911346 0.88745964 -0.5148553 -0.19100426
-0.56245106 -0.17738989 0.22206031 -0.0943252 -0.3305584 -0.59886277 -0.1149559 0.89138776
0.5756414 -1.460859 0.77889997 -0.34138295 0.33742326 0.45890844 -0.9626463 0.28643548
0.71217537 0.5182187 -0.5545963 0.21900733 -0.4337158 0.26448268 -0.6855933 -0.4324737
0.17155738 0.2882843 -0.119426355 0.42314503 -0.6555633 -0.18991897 0.24001147 1.294604
-0.14581312 -0.2883444 1.118737 -0.48999545 -0.17092419 -0.5531301 0.34376806 -0.45771396
-0.1990388 -0.7129333 -0.5763811 0.05608096 0.22277367 -0.30302516 0.16380021 -1.1576167
-0.09923881 0.01828532 1.3818345 -1.0908663 -0.32699132 -0.20337695 0.7449925 0.41177922
-0.1567372 0.45919976 -0.006259806 -0.17033392 -0.06370646 -0.42528433 -0.58049595 0.5274228
-1.0222322 0.60022104 -1.1908506 0.22994913 0.6929249 0.48758554 0.7145853 -1.0067003
0.6167704 0.09341725 -0.98402613 0.5399105 0.0131449355 0.427063 1.2852376 1.0680811
0.19338983 0.08170344 -0.44858408 -0.6033368 0.77848816 0.49032015 0.7503341 -0.56707776
-0.15573585 0.4683958 0.621528 0.6776175 0.5279811 -0.28069195 0.018199272 -0.8126992
-0.069164604 0.45875752 -1.0347198 0.895881 0.42784745 0.5757584 0.39703566 0.9143694
-1.2106601 -0.920439 1.0111662 -0.4389634 -0.018161854 -0.2259904 0.2976342 -0.6021487
-1.16676 -0.5874063 -0.9069354 -0.66999036 0.8578547 -0.6017634 0.8290113 -0.0677734
-0.7294796 -0.70182467 -0.57872796 0.23845628 0.37399942 0.19169267 -0.9188178 -0.089758
-0.6264069 0.11871581 1.3554584 -1.876697 1.102281 0.29441842 0.34940207 0.9471832
-0.45566067 1.8076982 0.43616885 0.40960032 -0.7264816 -0.07776541 -0.6743185 0.23863854
0.6940116 0.7279358 0.18078288 0.13504988 -0.35822597 -0.24802266 -0.704589 0.14084844
1.1578827 0.914105 -0.11344729 -0.6398322 0.40664697 -0.7020364 -0.56146425 0.77155274
0.7989567 -0.34291923 -0.68594277 0.5983355 0.6568204 -0.11094569 0.44874093 -0.3055403
0.49365434 -0.4092477 -0.6351358 -0.44811583 0.39698082 -0.58176166 0.14379223 -0.40234673
0.50839406 0.529982 -0.50227857 0.007897203 -0.28273645 -0.23159777 -0.2783161 0.050698806

sequential/conv2d_2/Conv2D;StatefulPartitionedCall/sequential/conv2d_2/Conv2D f4 [76]
00000000: 0000 0000 0000 0000 0000 0000 0000 0000
00000010: 0000 0000 0000 0000 0000 0000 0000 0000
00000020: 0000 0000 0000 0000 0000 0000 0000 0000
00000030: 0000 0000 0000 0000 0000 0000 0000 0000
00000040: 0000 0000 0000 0000 0000 0000 0000 0000
00000050: 0000 0000 0000 0000 0000 0000 0000 0000
00000060: 0000 0000 0000 0000 0000 0000 0000 0000
00000070: 0000 0000 0000 0000 0000 0000 0000 0000
00000080: 0000 0000 0000 0000 0000 0000 0000 0000
00000090: 0000 0000 0000 0000 0000 0000 0000 0000
000000a0: 0000 0000 0000 0000 0000 0000 0000 0000
000000b0: 0000 0000 0000 0000 0000 0000 0000 0000
000000c0: 0000 0000 0000 0000 0000 0000 0000 0000
000000d0: 0000 0000 0000 0000 0000 0000 0000 0000
000000e0: 0000 0000 0000 0000 0000 0000 0000 0000
000000f0: 0000 0000 0000 0000 0000 0000 0000 0000
00000100: 0000 0000 0000 0000 0000 0000 0000 0000
00000110: 0000 0000 0000 0000 0000 0000 0000 0000
00000120: 0000 0000 0000 0000 0000 0000 0000 0000
0.0 0.0 0.0 0.0 0.0 0.0 0.0 0.0
0.0 0.0 0.0 0.0 0.0 0.0 0.0 0.0
0.0 0.0 0.0 0.0 0.0 0.0 0.0 0.0
0.0 0.0 0.0 0.0 0.0 0.0 0.0 0.0
0.0 0.0 0.0 0.0 0.0 0.0 0.0 0.0
0.0 0.0 0.0 0.0 0.0 0.0 0.0 0.0
0.0 0.0 0.0 0.0 0.0 0.0 0.0 0.0
0.0 0.0 0.0 0.0 0.0 0.0 0.0 0.0
0.0 0.0 0.0 0.0 0.0 0.0 0.0 0.0
0.0 0.0 0.0 0.0

sequential/conv2d_2/Conv2D;StatefulPartitionedCall/sequential/conv2d_2/Conv2D1 i1 [76, 1, 1, 76] scale=0.018674191 zero_point=0
00000000: 4e00 f3ee d2ff fbec 20e4 b43a 0a38 f6f2
00000010: f90a 4705 21ba 17ee 1c32 f5f4 f4eb f9eb
00000020: 0d1e 0ae5 cf07 260a 12f6 f5ed 1931 f2f1
00000030: 11eb b900 03ee 10c7 3adf f511 08e3 29b5
00000040: 0201 00e2 34ee f8e0 f1ef eee7 f9c6 fef5
00000050: 1035 f816 fb2b f524 2cf7 c421 f113 ef0f
00000060: 2304 e026 f5f9 e512 0a03 4b0c f4f0 f017
00000070: 2504 f000 fa12 e910 f400 0b11 3deb d0b9
00000080: f3fc 102d 18f3 f016 0c04 e20a 06ff 1a11
00000090: ddf6 f2ee eeff e7e9 e5f5 041d 0eec e81e
000000a0: 0603 f0e8 0503 14f3 41e2 f50b ffe4 1307
000000b0: 0124 d0ca 140d 81e8 f1d9 14e7 300b 2503
000000c0: 011d 113d f701 1b08 f40c 19c1 daf5 f5df
000000d0: 173f 02fb c90e 1803 fc08 f60c 0fe1 e002
000000e0: 0bee 020f 01db f845 fafc fd01 d4f4 e6f9
000000f0: 26ff 0a05 0912 1314 f3f9 efeb f63c d5ff
1.456587 0.0 -0.24276449 -0.33613545 -0.8590128 -0.018674191 -0.09337096 -0.37348384
0.5975741 -0.52287734 -1.4192386 1.0831031 0.18674192 1.0457547 -0.18674192 -0.26143867
-0.13071933 0.18674192 1.3258675 0.09337096 0.6162483 -1.3071934 0.4295064 -0.33613545
0.52287734 0.93370956 -0.2054161 -0.2240903 -0.2240903 -0.392158 -0.13071933 -0.392158
0.24276449 0.5602257 0.18674192 -0.50420314 -0.91503537 0.13071933 0.7096193 0.18674192
0.33613545 -0.18674192 -0.2054161 -0.35480964 0.46685478 0.91503537 -0.26143867 -0.28011286
0.31746125 -0.392158 -1.3258675 0.0 0.056022573 -0.33613545 0.29878706 -1.0644289
1.0831031 -0.6162483 -0.2054161 0.31746125 0.14939353 -0.54155153 0.7656418 -1.4005643
0.037348382 0.018674191 0.0 -0.5602257 0.97105795 -0.33613545 -0.14939353 -0.5975741
-0.28011286 -0.31746125 -0.33613545 -0.46685478 -0.13071933 -1.0831031 -0.037348382 -0.2054161
0.29878706 0.98973215 -0.14939353 0.4108322 -0.09337096 0.8029902 -0.2054161 0.6722709
0.8216644 -0.16806772 -1.1204515 0.6162483 -0.28011286 0.35480964 -0.31746125 0.28011286
0.6535967 0.074696764 -0.5975741 0.7096193 -0.2054161 -0.13071933 -0.50420314 0.33613545
0.18674192 0.056022573 1.4005643 0.2240903 -0.2240903 -0.29878706 -0.29878706 0.4295064
0.6909451 0.074696764 -0.29878706 0.0 -0.11204515 0.33613545 -0.4295064 0.29878706
-0.2240903 0.0 0.2054161 0.31746125 1.1391257 -0.392158 -0.8963612 -1.3258675
-0.24276449 -0.074696764 0.29878706 0.8403386 0.4481806 -0.24276449 -0.29878706 0.4108322
0.2240903 0.074696764 -0.5602257 0.18674192 0.11204515 -0.018674191 0.48552898 0.31746125
-0.6535967 -0.18674192 -0.26143867 -0.33613545 -0.33613545 -0.018674191 -0.46685478 -0.4295064
-0.50420314 -0.2054161 0.074696764 0.54155153 0.26143867 -0.37348384 -0.4481806 0.5602257
0.11204515 0.056022573 -0.29878706 -0.4481806 0.09337096 0.056022573 0.37348384 -0.24276449
1.2138224 -0.5602257 -0.2054161 0.2054161 -0.018674191 -0.52287734 0.35480964 0.13071933
0.018674191 0.6722709 -0.8963612 -1.0084063 0.37348384 0.24276449 -2.3716223 -0.4481806
-0.28011286 -0.7282935 0.37348384 -0.46685478 0.8963612 0.2054161 0.6909451 0.056022573
0.018674191 0.54155153 0.31746125 1.1391257 -0.16806772 0.018674191 0.50420314 0.14939353
-0.2240903 0.2240903 0.46685478 -1.1764741 -0.7096193 -0.2054161 -0.2054161 -0.6162483
0.4295064 1.1764741 0.037348382 -0.09337096 -1.0270805 0.26143867 0.4481806 0.056022573
-0.074696764 0.14939353 -0.18674192 0.2240903 0.28011286 -0.5788999 -0.5975741 0.037348382
0.2054161 -0.33613545 0.037348382 0.28011286 0.018674191 -0.6909451 -0.14939353 1.2885191
-0.11204515 -0.074696764 -0.056022573 0.018674191 -0.8216644 -0.2240903 -0.48552898 -0.13071933
0.7096193 -0.018674191 0.18674192 0.09337096 0.16806772 0.33613545 0.35480964 0.37348384
-0.24276449 -0.13071933 -0.31746125 -0.392158 -0.18674192 1.1204515 -0.8029902 -0.018674191
