Homeworks/Homework_02/Group4_kws_a.tflite (tflite, 110784 bytes, 11 tensors)

unknown_17 f4 [8]
0.08952144 0.015585451 0.022862263 0.055408344 -0.2373772 -0.10636866 0.04140797 0.10932375
00000000: 0457 b73d 1f5a 7f3c a449 bb3c dcf3 623d
00000010: 0213 73be d0d7 d9bd 679b 293d 21e5 df3d

sequential/batch_normalization/FusedBatchNormV3;StatefulPartitionedCall/sequential/batch_normalization/FusedBatchNormV3 f4 [217]
0.1677877 -0.13157108 -0.5139113 -1.6309417 0.04038919 0.082376614 -0.55224466 1.5828178
-0.18470879 -0.45345327 0.10981902 0.38486737 0.33753002 0.17171066 0.0020351857 -0.33500808
0.31393677 -0.30246478 0.025482647 -0.10512048 0.010168463 -0.14711131 -0.4238252 -0.61831826
0.19115888 0.23641956 -0.065671496 -0.042201698 0.6288021 0.06125059 -0.19366628 -0.22439367
0.042032346 0.62368023 1.5213447 0.22856395 0.14738718 -0.10692258 0.2583274 0.16158783
-0.3228365 0.16201933 -0.40413973 -0.004303351 -0.21019368 -0.2437129 -0.2945225 -0.39262497
0.32220882 0.039805233 -0.5303825 -0.089674644 0.84682745 0.06454224 -0.58543 0.020286113
-0.29725438 -0.36082 -0.2030562 0.33573604 -0.30641648 -0.25647378 -0.33842716 -0.4119267
1.3220623 -0.26355523 -0.06738913 -0.795874 1.1739602 -0.07546009 0.08535983 -0.47033554
-0.18141036 0.49940482 -0.20541675 0.45986706 -0.20418377 -0.3401689 -0.09523751 -0.10307865
-0.4419326 0.08859272 0.031798832 0.30439305 -0.5938469 0.22101746 1.1427203 -0.019581407
-0.00045129657 0.30596688 0.060312938 1.011163 -0.34093925 0.03029731 0.16526316 1.019467
0.7257724 0.11438212 -0.13145638 -0.22199868 0.24694839 1.4394704 -0.013924781 -0.71286833
-0.084961876 -0.114600204 0.019569203 -0.10020374 0.20432974 -0.05269245 -0.21853223 0.41960478
0.2783942 -0.85271657 -0.17552547 0.12574565 0.028523553 0.014874607 0.04387118 0.168652
-0.45429757 0.68307465 0.64927006 0.3660469 0.084798925 0.49512768 0.029281646 0.06276061
-0.49972048 -0.2727144 -0.4406794 0.042982258 -0.21727781 0.50245893 -0.2760292 0.15083277
-0.16361283 0.24466445 0.09473921 -0.69684184 -0.25174278 -0.03833986 -0.08904021 0.26118174
0.026724063 -0.09588147 -0.15583624 0.20972694 0.49261624 -0.23332685 -0.2883798 0.054831967
-0.100244045 0.8108385 0.5039942 -0.052102067 -0.50190544 -0.14008059 -0.19806942 -0.38087815
0.02305463 0.15759891 -0.23248848 -0.20613424 -0.41893595 0.18186158 -0.13787866 1.1014855
-0.054062314 -0.2666388 -0.5853038 0.26362747 -0.25583994 -0.26544338 -0.15347856 -0.41831502
-0.058423992 -0.25359443 -0.3493266 2.3367708 -0.06493962 0.066107914 -0.07137469 -0.36748523
-0.07937837 -0.46034306 0.298592 -0.31532952 -0.10156299 -0.33941424 0.042981826 -0.32486954
-0.17415652 -0.4415273 -0.34622598 1.0872185 -0.033722684 -0.22241774 -0.09832762 -0.37840918
-0.08303777 -0.17051373 -0.23907712 -0.15965056 -0.41268188 0.28760645 -0.4401247 0.49116656
-0.16222343 -0.43851846 0.0115811955 0.5510509 -0.31089637 -0.22812697 0.18179953 -0.30918995
-0.21952605
00000000: 8ad0 2b3e 92ba 06be b18f 03bf b3c2 d0bf
00000010: 236f 253d 12b5 a83d e85f 0dbf c699 ca3f
00000020: 4d24 3dbe 072b e8be cbe8 e03d 560d c53e
00000030: bcd0 ac3e ebd4 2f3e c060 053b 2e86 abbe
00000040: 52bc a03e aadc 9abe fcc0 d03c 6849 d7bd
00000050: a099 263c 59a4 16be 9eff d8be 1b4a 1ebf
00000060: 27bf 433e f817 723e c77e 86bd b0db 2cbd
00000070: 2df9 203f e6e1 7a3d 7450 46be 74c7 65be
00000080: 1c2a 2c3d 82a9 1f3f 6cbb c23f ab0c 6a3e
00000090: aaec 163e 3afa dabd 7d43 843e 4877 253e
000000a0: d34a a5be 65e8 253e 67eb cebe 2003 8dbb
000000b0: 033d 57be e08f 79be a7cb 96be 2406 c9be
000000c0: 8ef8 a43e d00a 233d 26c7 07bf 57a7 b7bd
000000d0: afc9 583f b92e 843d bede 15bf 102f a63c
000000e0: ba31 98be 66bd b8be f7ed 4fbe 98e5 ab3e
000000f0: 9fe2 9cbe 8850 83be 5346 adbe 0ee8 d2be
00000100: 5639 a93f b6f0 86be 5003 8abd 66be 4bbf
00000110: 5444 963f d28a 9abd 22d1 ae3d d2cf f0be
00000120: a3c3 39be fdb1 ff3e c558 52be b273 eb3e
00000130: 8d15 51be 9e2a aebe e20b c3bd e61a d3bd
00000140: fd44 e2be 1a70 b53d 7e3f 023d 68d9 9b3e
00000150: 5a06 18bf 6752 623e a944 923f 3069 a0bc
00000160: 009c ecb9 b1a7 9c3e b30a 773d ca6d 813f
00000170: 978f aebe 1032 f83c bf3a 293e e57d 823f
00000180: 38cc 393f 2c41 ea3d 809c 06be 9f53 63be
00000190: 0ae0 7c3e 9140 b83f c424 64bc 8a7e 36bf
000001a0: 7e00 aebd 83b3 eabd 984f a03c 9e37 cdbd
000001b0: d13b 513e 0ad4 57bd eac6 5fbe 70d6 d63e
000001c0: af89 8e3e a24b 5abf f3bc 33be 78c3 003e
000001d0: 3aaa e93c a0b4 733c 44b2 333d 1cb3 2c3e
000001e0: b199 e8be fbdd 2e3f 9036 263f 806a bb3e
000001f0: 0fab ad3d 6081 fd3e 10e0 ef3c a288 803d
00000200: 5ddb ffbe 39a1 8bbe bba0 e1be 2a0e 303d
00000210: 137e 5ebe 26a1 003f b353 8dbe e873 1a3e
00000220: 1f8a 27be 5189 7a3e a206 c23d 3a64 32bf
00000230: 6ee4 80be 420a 1dbd b75a b6bd 9db9 853e
00000240: 6cec da3c 815d c4bd 8993 1fbe a9c2 563e
00000250: 3238 fc3e 3ced 6ebe 84a6 93be 7c97 603d
00000260: c04c cdbd 1d93 4f3f c405 013f fa68 55bd
00000270: e07c 00bf 4971 0fbe b6d2 4abe 7602 c3be
00000280: 10dd bc3c 9c61 213e 7611 6ebe db14 53be
00000290: c67e d6be ec39 3a3e 1030 0dbe 7afd 8c3f
000002a0: 7270 5dbd e184 88be 78d6 15bf 2efa 863e
000002b0: 74fd 82be 32e8 87be 7c29 1dbe 632d d6be
000002c0: ff4d 6fbd 21d7 81be f0da b2be a78d 1540
000002d0: 10ff 84bd 9663 873d e52c 92bd 0627 bcbe
000002e0: 2091 a2bd 16b2 ebbe 0de1 983e df72 a1be
000002f0: 4200 d0bd b4c7 adbe b60d 303d 4d55 a6be
00000300: 1656 32be de0f e2be 8844 b1be fa29 8b3f
00000310: cc20 0abd 7ac1 63be fe5f c9bd d9be c1be
00000320: b50f aabd 279b 2ebe a2d0 74be 707b 23be
00000330: 0a4b d3be 2741 933e 0658 e1be 2f7a fb3e
00000340: e61d 26be 7e85 e0be 0ebf 3d3c ac11 0d3f
00000350: cf2d 9fbe 1e9a 69be a829 3a3e 254e 9ebe
00000360: 70cb 60be

sequential/batch_normalization_2/FusedBatchNormV3;StatefulPartitionedCall/sequential/batch_normalization_2/FusedBatchNormV3 f4 [217]
-0.3545844 -0.52861 0.47407445 -0.9014758 -0.49107218 1.1030285 -0.26448652 -0.5491859
-0.93460023 -0.81663823 -0.8125621 -0.60183126 -1.3355622 -0.72867143 -0.6416904 -0.33181307
-0.6246784 -0.90608567 0.0015537441 -0.57707703 -0.6924149 -1.031574 -0.91190386 -0.33192354
-0.56963116 -0.6684028 -0.4837906 -0.2589819 -1.0364362 -0.9072628 -0.28289098 -0.5082053
-0.34288126 -1.0321604 -0.46705264 -0.9995903 -0.32576254 -0.70874226 -0.42861226 -0.14828923
-1.2556553 -0.88722837 -0.30270168 -0.21970513 -0.24073163 -0.7751898 -0.13637568 -1.2269825
-1.0237235 -0.2104685 -0.58910567 -0.64268136 0.9747962 -1.1165757 -1.1782348 -0.6963986
-0.74971867 -0.21749814 -0.58613074 -0.24829826 -0.3674835 -0.32126898 -0.5176891 -0.5665324
-0.46055973 -0.8017694 -1.0562172 -0.41603357 -0.6650783 -0.63911426 -1.0686088 -0.16452453
-0.56489134 -0.66760194 -0.42848456 0.14446118 -0.63794065 -0.26541603 -0.30417797 -1.054472
-0.7666447 0.17260861 -1.093107 -1.2585742 0.14229679 -0.81642735 -0.46729505 -0.7877841
-0.38405165 -0.69776535 -0.5884934 -0.6446487 -0.40931603 -1.1284764 -0.21459886 -0.6559514
-1.2818246 0.09798753 -0.15584473 -0.8751563 -0.28999555 -1.0835661 -0.20033821 -0.8266988
-0.23768412 -0.60855496 -0.06537235 -0.20496148 -0.6486728 -0.9610565 -1.2259946 -0.35590875
-0.7630873 0.77553207 -0.26450577 -1.0880308 -0.6256471 -0.8125243 -0.44687808 -0.16356176
-0.8701373 0.18891892 -0.7933038 -0.37140268 -1.0099273 -0.7027336 -0.8994874 -0.5660004
-0.40374154 -0.083366945 -0.93367696 -0.33858448 -0.1698252 -1.4342177 -0.64346117 -0.27216262
-0.54450846 -0.584719 -0.7831522 -0.747558 -0.96912295 -0.30664122 -0.33516532 -0.38289362
-0.6092804 -0.631162 -0.7072042 0.21478143 -0.47793323 -1.687947 0.055884093 -0.26956624
0.3275891 -0.11811973 -0.8531394 0.04008752 -0.287421 -0.31798384 -0.31565323 -0.39471003
-0.4707598 0.050601013 -0.04845193 -0.34626824 -0.54787767 -0.42900935 -0.5320215 0.2673848
-0.5946686 -0.70220286 -0.6998884 -0.39532688 -0.44693494 -0.15348049 -0.76803803 -0.48685408
-0.31083414 0.14259198 -1.002435 -0.1796962 -0.72193325 -0.43296725 -0.6201297 -0.7664666
-0.66678816 -0.3807962 -1.0527885 -0.4060881 -0.16784823 -1.4945457 -0.3996388 -0.3522366
-0.6935398 -0.44404957 -0.63688 -0.5998688 -0.65508616 0.0300439 -0.9145055 -0.6054958
-0.22718409 -0.8225968 -1.1132681 -0.56945914 -1.0041697 -0.9023777 -0.6007198 -0.19370398
-0.2929574 -0.7951795 -0.6256441 -0.6704915 -1.0820851 -0.41047013 -0.47463402 -0.5497949
-1.0577402
00000000: 168c b5be fc52 07bf e3b9 f23e 1ec7 66bf
00000010: d06d fbbe 0a30 8d3f c76a 87be 7297 0cbf
00000020: f641 6fbf 340f 51bf 1204 50bf 9d11 1abf
00000030: b4f3 aabf 368a 3abf d245 24bf 67e3 a9be
00000040: ecea 1fbf 3bf5 67bf 00a7 cb3a 52bb 13bf
00000050: 1a42 31bf 9e0a 84bf 8872 69bf e2f1 a9be
00000060: 59d3 11bf 721c 2bbf 67b3 f7be 4799 84be
00000070: f1a9 84bf 6042 68bf 16d7 90be be19 02bf
00000080: 228e afbe d51d 84bf 8621 efbe 26e5 7fbf
00000090: 59ca a6be 2270 35bf 1173 dbbe 22d9 17be
000000a0: 50b9 a0bf 6621 63bf b7fb 9abe 62fa 60be
000000b0: 5a82 76be d772 46bf 11a6 0bbe c30d 9dbf
000000c0: 5f09 83bf 0e85 57be a1cf 16bf c486 24bf
000000d0: 3e8c 793f f4eb 8ebf 66d0 96bf 2e47 32bf
000000e0: 90ed 3fbf d5b7 5ebe aa0c 16bf e641 7ebe
000000f0: cc26 bcbe 5e7d a4be 4687 04bf 4408 11bf
00000100: 7cce ebbe c240 4dbf 2032 87bf 5a02 d5be
00000110: 9242 2abf fe9c 23bf 2cc8 88bf 1e79 28be
00000120: b89c 10bf f6e7 2abf 5462 dbbe a2ed 133e
00000130: 1450 23bf 9ce4 87be 37bd 9bbe f0f8 86bf
00000140: d442 44bf 50c0 303e eeea 8bbf f618 a1bf
00000150: 40b6 113e 6201 51bf 4c41 efbe 38ac 49bf
00000160: 6ba2 c4be c0a0 32bf 81a7 16bf b207 25bf
00000170: df91 d1be ea71 90bf cebf 5bbe 6eec 27bf
00000180: d412 a4bf b0ad c83d c395 1fbe 3e0a 60bf
00000190: 4c7a 94be 4bb2 8abf 7625 4dbe 88a2 53bf
000001a0: 7763 73be 42ca 1bbf f0e1 85bd 6ce1 51be
000001b0: 6c0f 26bf cc07 76bf 64ed 9cbf ac39 b6be
000001c0: b059 43bf 4589 463f 4d6d 87be 9844 8bbf
000001d0: 692a 20bf 9801 50bf 34cd e4be bc7c 27be
000001e0: 51c1 5ebf f673 413e f515 4bbf 7e28 bebe
000001f0: 4c45 81bf 59e6 33bf ce44 66bf 67e5 10bf
00000200: 36b7 cebe 4abc aabd 7405 6fbf f25a adbe
00000210: a8e6 2dbe 7294 b7bf dfb9 24bf e658 8bbe
00000220: e864 0bbf 25b0 15bf aa7c 48bf f65f 3fbf
00000230: 7118 78bf 1400 9dbe ca9a abbe a20a c4be
00000240: cdf9 1bbf d593 21bf 560b 35bf aaef 5b3e
00000250: aab3 f4be a60e d8bf b8e6 643d 9604 8abe
00000260: c2b9 a73e c2e8 f1bd 5867 5abf d032 243d
00000270: d828 93be c7ce a2be 4d9d a1be 6f17 cabe
00000280: 6e07 f1be 0243 4f3d 8875 46bd 124a b1be
00000290: b641 0cbf 1da7 dbbe 9032 08bf a9e6 883e
000002a0: 343c 18bf 91c3 33bf e32b 33bf 4968 cabe
000002b0: a8d4 e4be fd29 1dbe 249e 44bf f044 f9be
000002c0: a725 9fbe a203 123e ca4f 80bf 4802 38be
000002d0: 9ed0 38bf e2ad ddbe d2c0 1ebf 2837 44bf
000002e0: a1b2 2abf b8f7 c2be c6c1 86bf c8ea cfbe
000002f0: 68e0 2bbe 464d bfbf 759d ccbe 5b58 b4be
00000300: d38b 31bf 775a e3be 910a 23bf 0091 19bf
00000310: bab3 27bf a01e f63c 081d 6abf c601 1bbf
00000320: f2a2 68be b495 52bf 927f 8ebf 13c8 11bf
00000330: a288 80bf 3a02 67bf c6c8 19bf 565a 46be
00000340: 83fe 95be e290 4bbf 362a 20bf 55a5 2bbf
00000350: c481 8abf 2429 d2be 3b03 f3be 5cbf 0cbf
00000360: 0864 87bf

sequential/dense/MatMul;StatefulPartitionedCall/sequential/dense/MatMul i1 [8, 217] scale=0.0098349955 zero_point=0
0.2163699 -0.6982847 -0.6687797 -0.58026475 0.019669991 -0.6294397 0.4524098 -0.8753146
0.6097697 -0.6982847 0.5212548 -0.33438984 -0.7966346 0.2262049 -0.28521487 0.2163699
-0.29504988 0.14752494 0.32455486 -0.6294397 -0.10818495 -0.5114198 -0.36389482 0.2655449
-0.72778964 0.4032348 -0.8163046 0.078679964 0.38356483 0.35405985 0.7179547 0.4425748
0.29504988 0.19669992 0.24587488 -0.78679967 0.4130698 -0.37372983 -0.2557099 -0.4819148
0.34422484 -0.35405985 0.19669992 0.2163699 -0.6294397 0.09834996 0.46224478 -0.4327398
0.19669992 0.04917498 -0.04917498 0.2163699 0.31471986 -0.77696466 -0.16719492 0.04917498
0.50158477 -0.83597463 0.2655449 -0.7179547 -0.34422484 -0.77696466 -0.04917498 -0.6687797
0.2262049 -0.5310898 -0.34422484 -0.36389482 0.49174976 -0.42290482 -0.5114198 0.35405985
0.30488485 -0.91465455 0.23603989 0.6589447 -0.47207978 -0.27537987 0.6589447 0.6097697
-0.35405985 -1.0326746 -0.06884497 0.2655449 0.6982847 0.08851496 -0.09834996 0.31471986
0.35405985 -0.059009973 0.55075973 -0.58026475 -0.55075973 -0.6982847 0.08851496 0.29504988
-0.37372983 0.2163699 0.17702992 0.17702992 -0.5212548 -0.059009973 -0.06884497 -0.34422484
0.039339982 0.0098349955 -0.059009973 -0.8064696 0.4032348 -0.6196047 -0.078679964 -1.0130045
0.6491097 -1.0818495 -0.35405985 0.29504988 -0.2655449 -0.8949846 0.75729465 -0.84580964
0.6392747 0.8556446 0.49174976 -0.6097697 -0.58026475 -0.31471986 -0.30488485 0.118019946
0.0098349955 0.6491097 -0.6097697 -0.6196047 0.5212548 -0.4425748 -0.58026475 0.14752494
0.4327398 0.34422484 -0.4032348 0.09834996 -0.6589447 -0.93432456 0.4032348 0.32455486
0.46224478 0.4425748 -0.35405985 0.30488485 0.91465455 -0.77696466 -0.78679967 0.039339982
-0.31471986 -0.56059474 0.019669991 0.29504988 -0.5212548 0.34422484 0.33438984 -0.9834995
-0.5999347 -0.35405985 -0.5999347 0.6392747 0.6491097 0.6589447 0.33438984 0.5999347
0.2557099 -0.078679964 -0.8949846 -0.34422484 0.0098349955 0.57042974 -0.58026475 0.15735993
0.6097697 -0.10818495 -0.38356483 0.4524098 -0.29504988 -0.74745965 0.4032348 0.08851496
0.59009975 0.32455486 0.118019946 0.34422484 -0.6884497 0.29504988 -0.10818495 -0.8163046
0.059009973 0.5212548 0.59009975 -0.50158477 0.55075973 0.5212548 0.5999347 0.33438984
-0.4130698 0.13768993 -0.2557099 -0.059009973 -1.1113545 -0.6392747 -0.078679964 -0.47207978
-0.76712966 0.6294397 0.5999347 0.6491097 0.57042974 -0.5999347 0.37372983 0.57042974
0.039339982 -0.10818495 -0.83597463 0.5212548 -0.15735993 -0.5212548 0.4524098 -0.4327398
0.27537987 -0.4130698 0.6982847 0.14752494 0.18686491 -0.7966346 0.2557099 0.6589447
-0.35405985 -0.5999347 0.57042974 -0.33438984 0.9539946 0.4032348 0.47207978 -0.56059474
0.4032348 -0.7179547 0.5114198 -0.49174976 0.4130698 -0.8851496 -1.2490444 0.33438984
0.4819148 -0.76712966 0.7081197 0.5114198 -0.5310898 0.31471986 -0.6097697 0.38356483
00000000: 16b9 bcc5 02c0 2ea7 3eb9 35de af17 e316
00000010: e20f 21c0 f5cc db1b b629 ad08 2724 492d
00000020: 1e14 19b0 2ada e6cf 23dc 1416 c00a 2fd4
00000030: 1405 fb16 20b1 ef05 33ab 1bb7 ddb1 fbbc
00000040: 17ca dddb 32d5 cc24 1fa3 1843 d0e4 433e
00000050: dc97 f91b 4709 f620 24fa 38c5 c8b9 091e
00000060: da16 1212 cbfa f9dd 0401 faae 29c1 f899
00000070: 4292 dc1e e5a5 4daa 4157 32c2 c5e0 e10c
00000080: 0142 c2c1 35d3 c50f 2c23 d70a bda1 2921
00000090: 2f2d dc1f 5db1 b004 e0c7 021e cb23 229c
000000a0: c3dc c341 4243 223d 1af8 a5dd 013a c510
000000b0: 3ef5 d92e e2b4 2909 3c21 0c23 ba1e f5ad
000000c0: 0635 3ccd 3835 3d22 d60e e6fa 8fbf f8d0
000000d0: b240 3d42 3ac3 263a 04f5 ab35 f0cb 2ed4
000000e0: 1cd6 470f 13af 1a43 dcc3 3ade 6129 30c7
000000f0: 29b7 34ce 2aa6 8122 31b2 4834 ca20 c227

sequential/batch_normalization_1/FusedBatchNormV3;StatefulPartitionedCall/sequential/batch_normalization_1/FusedBatchNormV3 f4 [217]
-0.28592265 -0.3014691 0.31470513 -0.647628 -0.18764201 -0.7285187 -0.087813646 0.2333296
0.038702965 0.23466152 0.14561301 -0.118902564 -0.7384572 -0.098944634 -0.086479485 0.046486795
-0.24073115 -0.10845506 -0.24283344 0.19035795 0.40109715 0.28741306 -0.849892 -0.58135986
-0.76395035 -0.06474069 -0.43668485 -0.34983194 -0.12144971 0.11475164 0.23383886 -0.23496526
-0.172714 -0.055520177 0.16043693 -0.008553982 0.12904662 -1.2589928 0.3566709 -1.0713286
0.20814112 -0.5187951 0.65436405 -0.13147622 0.053972185 -0.106696665 -1.004023 -0.1849795
-0.032188833 0.00051903725 -0.75268644 0.27362 -0.028268218 -0.38756207 -1.1803468 0.24914736
-0.03389442 0.19083154 0.1319587 -0.56820834 -0.024970114 -0.6482079 0.15618676 0.60270536
-0.2177741 0.06262997 0.29116422 -0.016627312 0.28710306 -0.73848 -0.049459428 -0.61227715
-0.25980908 -0.3318804 -0.84568405 -0.6730648 -0.25912866 -0.28570822 -0.44401443 -0.6119554
0.3834422 -0.49781203 0.1467914 -0.70205027 0.06733477 0.24094684 -0.32401925 0.031196281
-0.033821285 0.16980785 0.37989253 0.18676426 -0.8198583 -0.38711858 -0.31909263 -0.5100899
-0.71057403 -0.44816065 -0.034262717 0.14537898 -0.37696347 0.0148765445 -1.7090828 -0.49631172
0.28407687 -0.07789409 0.015563667 0.18941514 -0.4455288 0.03071189 -0.115520746 -1.0198197
0.39272973 0.11189973 0.057980657 -0.00537014 -0.25237006 -0.10126755 0.29834187 -0.018286884
-0.007642925 -0.8078283 0.40585777 -0.27422673 -0.039570183 0.25557312 0.39097512 -0.20178646
-0.17134216 0.3862763 -0.19061363 0.412497 -0.8909519 -1.1462001 -0.79216504 -1.2072531
0.24721938 -0.6434305 0.08728179 -0.13300976 0.29352397 0.453205 -0.7646107 0.29472333
0.14144266 0.23449889 -0.8050848 -0.4843508 0.41210115 0.41078502 -0.084325165 0.27648312
-0.038427114 -0.3643073 -0.7515552 -0.65686226 -0.44211477 0.22585624 0.3839101 -0.18805477
-0.028794885 -0.105234504 -0.29325658 -1.0454965 -0.007029474 -0.13626856 0.19837794 -0.8203728
0.33076242 0.06738812 -0.20754981 -0.1904226 -0.47395855 0.16744974 -0.2842426 0.3309214
-0.29820094 -0.7459848 0.16459566 0.07713336 -0.8238744 -0.84997666 0.57446694 0.30076888
-0.46483988 -0.7475834 0.12557495 0.36884826 -0.04717207 -0.5064659 -0.83382756 -0.011255503
0.26937222 -0.68031055 -1.0550405 -0.14981085 -0.19894111 -0.46508917 -0.59802735 -1.0533748
-0.013711035 0.18832004 0.26206684 0.44935668 -0.48197392 -0.4622229 -0.3104506 -0.10064787
-0.2826134 -0.24057609 -0.8438235 -0.123876035 -0.7644013 0.16670346 -0.93573725 0.5419171
-0.02419722
00000000: 7464 92be 285a 9abe 0821 a13e f3ca 25bf
00000010: 3a25 40be 3480 3abf a4d7 b3bd f4ed 6e3e
00000020: 0087 1e3d 1c4b 703e 941b 153e 3083 f3bd
00000030: 880b 3dbf 7ca3 cabd 281c b1bd f068 3e3d
00000040: 3a82 76be b01d debd 54a9 78be 32ed 423e
00000050: 9b5c cd3e ce27 933e 8692 59bf 00d4 14bf
00000060: 4092 43bf c496 84bd 2895 dfbe 2c1d b3be
00000070: a0ba f8bd e802 eb3d 7473 6f3e bc9a 70be
00000080: f0db 30be 2069 63bd 9449 243e 0026 0cbc
00000090: cc24 043e ad26 a1bf 919d b63e 4c21 89bf
000000a0: f222 553e c1cf 04bf 6784 273f b4a1 06be
000000b0: f011 5d3d c883 dabd d383 80bf 446b 3dbe
000000c0: 70d8 03bd 0010 083a 0fb0 40bf ec17 8c3e
000000d0: c092 e7bc 896e c6be 9b15 97bf 7c20 7f3e
000000e0: e0d4 0abd 5869 433e 2e20 073e 1a76 11bf
000000f0: 208e ccbc f4f0 25bf 6cef 1f3e e64a 1a3f
00000100: 2c00 5fbe 2444 803d 7a13 953e 0036 88bc
00000110: 2cff 923e 060d 3dbf f895 4abd 32be 1cbf
00000120: b205 85be 3aec a9be c07e 58bf fa4d 2cbf
00000130: 83ac 84be 5948 92be dc55 e3be 1ca9 1cbf
00000140: 8952 c43e 38e1 febe 7c50 163e 91b9 33bf
00000150: d0e6 893d c5ba 763e dae5 a5be 588f ff3c
00000160: 3088 0abd 1ce2 2d3e 4681 c23e 213f 3f3e
00000170: 3ce2 51bf 6834 c6be 1c60 a3be 4095 02bf
00000180: 2ee8 35bf 5075 e5be 1057 0cbd 3ade 143e
00000190: 5b01 c1be c0bc 733c 3ac3 dabf 921c febe
000001a0: 8672 913e f086 9fbd c0fe 7e3c 0bf6 413e
000001b0: 5a1c e4be 8097 fb3c 2496 ecbd 7489 82bf
000001c0: df13 c93e b02b e53d 207d 6d3d 00f8 afbb
000001d0: a636 81be 5c65 cfbd 44c0 983e 60ce 95bc
000001e0: 8071 fabb d6cd 4ebf 97cc cf3e 7267 8cbe
000001f0: 5814 22bd 7bda 823e e42d c83e 1ca1 4ebe
00000200: 5274 2fbe 02c6 c53e 3830 43be cf32 d33e
00000210: 6c15 64bf afb6 92bf 54cb 4abf 4587 9abf
00000220: 1427 7d3e dcb7 24bf ccc0 b23d b633 08be
00000230: c648 963e 7c0a e83e 87bd 43bf fae5 963e
00000240: 58d6 103e 7a20 703e 0a1a 4ebf d4fc f7be
00000250: ecfe d23e 6a52 d23e acb2 acbd 328f 8d3e
00000260: c065 1dbd 7d86 babe ec65 40bf 2028 28bf
00000270: de5c e2be dc46 673e dd8f c43e 6e91 40be
00000280: 40e3 ebbc 3085 d7bd ba25 96be d4d2 85bf
00000290: 8057 e6bb fc89 0bbe 9623 4b3e f403 52bf
000002a0: b159 a93e c802 8a3d f087 54be 24fe 42be
000002b0: b2aa f2be f277 2b3e 3f88 91be 886e a93e
000002c0: cbad 98be dcf8 3ebf c48b 283e 18f8 9d3d
000002d0: 6fe9 52bf 1298 59bf 4410 133f 61fe 993e
000002e0: 7eff edbe a061 3fbf b896 003e aed9 bc3e
000002f0: 8037 41bd c0a7 01bf b975 55bf 0069 38bc
00000300: 28eb 893e d528 2ebf 910b 87bf 0468 19be
00000310: 38b7 4bbe 2b20 eebe 5218 19bf fcd4 86bf
00000320: 40a4 60bc f8d6 403e a02d 863e 1412 e63e
00000330: 49c5 f6be 7ba8 ecbe 62f3 9ebe 7820 cebd
00000340: b4b2 90be 9459 76be d104 58bf b8b2 fdbd
00000350: ceaf 43bf 50b4 2a3e 7a8c 6fbf 14bb 0a3f
00000360: 4039 c6bc

sequential/conv2d/Conv2D;StatefulPartitionedCall/sequential/conv2d/Conv2D i1 [217, 3, 3, 1] scale=0.0051953387 zero_point=0
-0.0103906775 -0.03636737 -0.0051953387 0.03636737 0.0103906775 0.015586017 0.020781355 0.0
0.0051953387 -0.0103906775 -0.0051953387 0.0 0.17144617 0.0 0.03636737 -0.062344067
0.020781355 -0.031172033 0.1610555 0.36367372 -0.015586017 -0.0103906775 0.34289235 -0.23898558
-0.15586016 0.11949279 -0.020781355 -0.051953387 0.03636737 -0.07273474 -0.020781355 0.062344067
-0.04156271 -0.020781355 0.0675394 -0.025976693 0.0051953387 -0.0051953387 -0.0051953387 0.015586017
0.0 0.0 0.0 0.0 -0.0051953387 0.0 0.15066482 0.24418092
0.0935161 -0.18183686 -0.16625084 -0.04675805 -0.109102115 0.16625084 0.0051953387 0.0051953387
-0.020781355 -0.025976693 0.0 0.0 -0.015586017 0.0 -0.0051953387 0.19222753
0.07793008 -0.0103906775 -0.03636737 -0.020781355 -0.04156271 -0.015586017 0.020781355 -0.04156271
-0.04675805 0.19742288 0.062344067 -0.04156271 0.17144617 -0.12988347 0.11429745 0.025976693
-0.29093897 0.17664152 0.109102115 -0.20781355 -0.04675805 0.14027415 0.2701576 -0.19742288
-0.09871144 -0.17664152 0.0051953387 0.0935161 -0.0103906775 0.015586017 0.11429745 0.20781355
0.04675805 0.0 0.14546949 -0.031172033 -0.14546949 0.23379025 0.10390677 -0.031172033
0.39484575 0.08832076 0.1350788 -0.07793008 -0.24418092 -0.051953387 0.1870322 -0.062344067
-0.1350788 -0.17144617 0.33769703 0.14546949 -0.10390677 0.04156271 0.25976694 0.10390677
0.2545716 -0.20781355 -0.29613432 -0.23898558 -0.025976693 0.09871144 0.062344067 -0.0051953387
-0.020781355 0.031172033 0.025976693 -0.0103906775 -0.0103906775 0.04675805 0.0051953387 0.015586017
0.0 -0.0051953387 0.0103906775 -0.0051953387 -0.0103906775 0.020781355 -0.020781355 0.0
-0.0103906775 -0.09871144 0.0051953387 0.025976693 -0.11429745 0.20261821 0.051953387 0.015586017
0.20261821 -0.0103906775 -0.0103906775 0.0 -0.03636737 -0.0051953387 0.0051953387 -0.015586017
0.0051953387 0.025976693 0.015586017 0.0103906775 0.0103906775 0.031172033 -0.0051953387 -0.020781355
0.0103906775 0.0 -0.051953387 0.0103906775 -0.025976693 0.04156271 0.031172033 0.0
0.015586017 0.025976693 -0.0051953387 0.062344067 0.015586017 0.0 -0.0051953387 0.07793008
-0.015586017 0.025976693 0.020781355 -0.0675394 -0.04156271 -0.0051953387 0.0 -0.0051953387
0.0 0.0 0.0 -0.0051953387 0.0 0.0 -0.015586017 0.03636737
0.0 -0.051953387 0.020781355 -0.04156271 0.020781355 -0.04156271 -0.04156271 -0.025976693
0.0675394 -0.07273474 -0.015586017 0.08832076 -0.0051953387 -0.020781355 0.020781355 0.0
0.0103906775 -0.015586017 0.0 0.015586017 0.0051953387 -0.015586017 0.03636737 0.0103906775
-0.015586017 -0.051953387 0.03636737 0.0 0.0103906775 -0.062344067 -0.020781355 0.1610555
-0.0675394 -0.04675805 -0.0103906775 0.031172033 0.07273474 -0.020781355 0.025976693 0.0675394
-0.04156271 0.051953387 -0.03636737 0.19742288 0.58187795 0.5403152 0.0935161 -0.12468813
-0.3896504 -0.20781355 -0.48836184 -0.37925974 0.025976693 0.031172033 0.03636737 0.057148725
00000000: fef9 ff07 0203 0400 01fe ff00 2100 07f4
00000010: 04fa 1f46 fdfe 42d2 e217 fcf6 07f2 fc0c
00000020: f8fc 0dfb 01ff ff03 0000 0000 ff00 1d2f
00000030: 12dd e0f7 eb20 0101 fcfb 0000 fd00 ff25
00000040: 0ffe f9fc f8fd 04f8 f726 0cf8 21e7 1605
00000050: c822 15d8 f71b 34da edde 0112 fe03 1628
00000060: 0900 1cfa e42d 14fa 4c11 1af1 d1f6 24f4
00000070: e6df 411c ec08 3214 31d8 c7d2 fb13 0cff
00000080: fc06 05fe fe09 0103 00ff 02ff fe04 fc00
00000090: feed 0105 ea27 0a03 27fe fe00 f9ff 01fd
000000a0: 0105 0302 0206 fffc 0200 f602 fb08 0600
000000b0: 0305 ff0c 0300 ff0f fd05 04f3 f8ff 00ff
000000c0: 0000 00ff 0000 fd07 00f6 04f8 04f8 f8fb
000000d0: 0df2 fd11 fffc 0400 02fd 0003 01fd 0702
000000e0: fdf6 0700 02f4 fc1f f3f7 fe06 0efc 050d
000000f0: f80a f926 7068 12e8 b5d8 a2b7 0506 070b

sequential/depthwise_conv2d/depthwise;StatefulPartitionedCall/sequential/depthwise_conv2d/depthwise i1 [1, 3, 3, 217] scale=0.009529194 zero_point=0
0.1524671 -0.4669305 -0.638456 -0.4859889 0.019058388 -0.07623355 -0.04764597 -0.7242187
-0.057175163 -0.40975535 0.13340871 -0.6289268 0.41928452 -0.20964226 0.38116777 -0.019058388
0.3144634 0.12387952 -0.14293791 0.10482113 0.39069694 -0.066704355 0.07623355 -0.33352178
0.0 0.39069694 0.10482113 -0.32399258 -0.40975535 -0.3049342 0.24775904 -0.028587582
-0.12387952 0.53363484 0.50504726 0.4669305 -0.19058388 0.066704355 -0.09529194 -0.009529194
-0.12387952 0.04764597 0.07623355 -0.1715255 0.0 0.04764597 -0.066704355 0.08576275
0.23822984 0.019058388 -0.16199629 0.04764597 -0.37163857 -0.09529194 0.4859889 0.20011307
-0.11435033 -0.038116775 -0.019058388 -0.37163857 -0.20964226 -0.04764597 -0.20964226 0.21917146
0.66704357 -0.14293791 -0.1715255 -0.08576275 0.35258016 0.12387952 0.07623355 0.009529194
0.12387952 0.67657274 -0.057175163 0.27634662 0.18105468 -0.057175163 -0.04764597 0.3144634
0.04764597 -0.09529194 -0.19058388 -0.12387952 -0.009529194 -0.24775904 0.35258016 -0.26681742
0.18105468 -0.11435033 0.20011307 0.52410567 -0.09529194 -0.20011307 -0.3144634 0.32399258
0.1524671 -0.43834293 0.10482113 0.066704355 -0.28587583 -0.40975535 0.11435033 -0.038116775
-0.27634662 0.27634662 -0.42881373 -0.019058388 0.009529194 -0.066704355 0.07623355 0.55269325
0.07623355 0.26681742 0.08576275 -0.40975535 0.12387952 -0.50504726 0.24775904 -0.10482113
0.057175163 0.47645968 -0.23822984 0.5145765 0.019058388 0.0 -0.10482113 0.21917146
0.07623355 -0.295405 0.057175163 0.1715255 0.19058388 0.24775904 0.6575144 0.11435033
0.11435033 -0.13340871 0.019058388 0.009529194 0.22870065 0.08576275 -0.019058388 -0.36210936
-0.11435033 -0.019058388 0.1715255 -0.27634662 0.19058388 -0.13340871 0.12387952 0.12387952
0.0 -0.5622224 0.5145765 -0.36210936 -0.22870065 0.295405 0.4574013 -0.1524671
0.11435033 0.066704355 0.04764597 -0.028587582 0.47645968 -0.40022615 0.038116775 -0.40975535
-0.09529194 -0.028587582 0.13340871 -0.009529194 -0.33352178 -0.42881373 0.22870065 0.14293791
0.1715255 -0.12387952 -0.009529194 -0.8195107 -0.009529194 -0.25728825 -0.07623355 0.28587583
-0.20964226 -0.13340871 -0.19058388 -0.066704355 -0.20964226 -0.04764597 0.26681742 -0.20011307
0.1715255 0.09529194 0.08576275 0.28587583 -0.43834293 0.09529194 0.09529194 0.11435033
-0.066704355 0.057175163 -0.4955181 0.04764597 -0.019058388 0.3144634 -0.25728825 0.40022615
-0.6098684 0.12387952 -0.10482113 -0.11435033 -0.038116775 0.08576275 -0.066704355 -0.038116775
0.14293791 0.24775904 -0.4669305 0.20011307 -0.20011307 -0.13340871 -0.09529194 0.066704355
-0.23822984 -0.12387952 -0.40975535 -0.22870065 -0.19058388 0.04764597 0.11435033 0.16199629
-0.1715255 0.13340871 -0.07623355 0.19058388 -0.19058388 -0.20011307 0.23822984 -0.27634662
0.3144634 0.0 -0.35258016 -0.32399258 -0.13340871 0.295405 -0.343051 0.37163857
0.33352178 0.33352178 -0.36210936 0.343051 -0.10482113 0.23822984 -0.41928452 0.32399258
00000000: 10cf bdcd 02f8 fbb4 fad5 0ebe 2cea 28fe
00000010: 210d f10b 29f9 08dd 0029 0bde d5e0 1afd
00000020: f338 3531 ec07 f6ff f305 08ee 0005 f909
00000030: 1902 ef05 d9f6 3315 f4fc fed9 eafb ea17
00000040: 46f1 eef7 250d 0801 0d47 fa1d 13fa fb21
00000050: 05f6 ecf3 ffe6 25e4 13f4 1537 f6eb df22
00000060: 10d2 0b07 e2d5 0cfc e31d d3fe 01f9 083a
00000070: 081c 09d5 0dcb 1af5 0632 e736 0200 f517
00000080: 08e1 0612 141a 450c 0cf2 0201 1809 feda
00000090: f4fe 12e3 14f2 0d0d 00c5 36da e81f 30f0
000000a0: 0c07 05fd 32d6 04d5 f6fd 0eff ddd3 180f
000000b0: 12f3 ffaa ffe5 f81e eaf2 ecf9 eafb 1ceb
000000c0: 120a 091e d20a 0a0c f906 cc05 fe21 e52a
000000d0: c00d f5f4 fc09 f9fc 0f1a cf15 ebf2 f607
000000e0: e7f3 d5e8 ec05 0c11 ee0e f814 eceb 19e3
000000f0: 2100 dbde f21f dc27 2323 da24 f519 d422

sequential/conv2d_1/Conv2D;StatefulPartitionedCall/sequential/conv2d_1/Conv2D i1 [217, 1, 1, 217] scale=0.0043921485 zero_point=0
-0.08784297 0.030745039 -0.02635289 0.021960743 0.008784297 -0.061490078 0.043921486 0.0
0.0043921485 0.008784297 0.0 0.10101941 -0.19325453 0.12737231 -0.070274375 -0.048313633
-0.2986661 0.0043921485 0.10101941 0.13176446 0.043921486 0.122980155 0.06588223 0.070274375
0.11858801 0.039529335 0.061490078 -0.14933304 -0.035137188 -0.21082312 -0.10101941 0.035137188
-0.06588223 0.14933304 0.11858801 -0.12737231 0.021960743 -0.017568594 0.11858801 -0.15372519
-0.02635289 -0.061490078 -0.013176445 0.043921486 0.05270578 -0.039529335 -0.013176445 -0.19764668
-0.061490078 -0.083450824 0.039529335 0.030745039 0.09223512 -0.08784297 -0.18886238 -0.05709793
-0.07905867 0.07466652 0.07905867 -0.05709793 0.048313633 -0.048313633 0.0 -0.061490078
0.061490078 0.043921486 -0.061490078 0.096627265 0.109803714 -0.035137188 -0.043921486 -0.017568594
-0.10541156 -0.013176445 0.017568594 -0.043921486 0.07466652 0.008784297 -0.07905867 -0.05270578
0.043921486 -0.10541156 -0.11858801 0.08784297 0.05270578 0.07905867 -0.02635289 0.021960743
-0.0043921485 -0.17568594 0.14933304 0.109803714 -0.039529335 -0.14933304 0.035137188 -0.15372519
0.070274375 0.048313633 -0.017568594 0.0 -0.030745039 -0.10541156 0.013176445 0.05709793
0.013176445 0.096627265 -0.043921486 0.06588223 0.11419586 -0.11419586 -0.070274375 0.030745039
0.08784297 0.039529335 -0.043921486 -0.17568594 -0.043921486 -0.008784297 0.070274375 -0.061490078
0.035137188 0.09223512 0.09223512 -0.035137188 0.21082312 0.11858801 -0.043921486 -0.122980155
0.039529335 0.083450824 -0.048313633 0.030745039 0.05709793 -0.048313633 -0.030745039 -0.13176446
-0.07466652 -0.013176445 -0.16250949 -0.030745039 0.035137188 0.06588223 -0.021960743 -0.061490078
-0.13176446 -0.083450824 -0.05709793 -0.07466652 0.017568594 0.02635289 0.09223512 0.035137188
0.030745039 -0.11858801 0.02635289 -0.02635289 -0.109803714 -0.10101941 0.11858801 0.030745039
0.0 0.043921486 0.017568594 -0.030745039 0.0043921485 -0.2723132 -0.030745039 -0.17568594
-0.021960743 0.039529335 0.17568594 -0.05709793 0.039529335 -0.21521528 -0.21521528 0.035137188
-0.048313633 -0.061490078 -0.008784297 -0.05709793 0.048313633 0.043921486 -0.14933304 -0.10101941
-0.22839172 -0.0043921485 -0.15811734 0.008784297 0.02635289 -0.061490078 0.15372519 0.083450824
-0.013176445 -0.06588223 0.06588223 -0.122980155 -0.030745039 -0.07905867 -0.043921486 -0.043921486
0.021960743 -0.02635289 -0.0043921485 -0.05270578 0.02635289 0.08784297 0.096627265 -0.05709793
-0.05709793 0.0 -0.0043921485 0.008784297 0.017568594 -0.0043921485 -0.11419586 -0.083450824
-0.10101941 -0.1361566 -0.19764668 -0.17568594 -0.13176446 -0.02635289 -0.05270578 -0.05709793
0.10101941 -0.13176446 0.061490078 -0.030745039 -0.043921486 0.035137188 0.11419586 0.10541156
-0.039529335 0.32941115 -0.0043921485 0.0043921485 -0.17568594 -0.19764668 0.06588223 0.035137188
0.09223512 -0.10541156 -0.05270578 -0.15372519 -0.08784297 0.1712938 0.11419586 -0.08784297
-0.12737231 -0.08784297 -0.17568594 -0.13176446 0.109803714 -0.05270578 -0.05270578 -0.14933304
00000000: ec07 fa05 02f2 0a00 0102 0017 d41d f0f5
00000010: bc01 171e 0a1c 0f10 1b09 0ede f8d0 e908
00000020: f122 1be3 05fc 1bdd faf2 fd0a 0cf7 fdd3
00000030: f2ed 0907 15ec d5f3 ee11 12f3 0bf5 00f2
00000040: 0e0a f216 19f8 f6fc e8fd 04f6 1102 eef4
00000050: 0ae8 e514 0c12 fa05 ffd8 2219 f7de 08dd
00000060: 100b fc00 f9e8 030d 0316 f60f 1ae6 f007
00000070: 1409 f6d8 f6fe 10f2 0815 15f8 301b f6e4
00000080: 0913 f507 0df5 f9e2 effd dbf9 080f fbf2
00000090: e2ed f3ef 0406 1508 07e5 06fa e7e9 1b07
000000a0: 000a 04f9 01c2 f9d8 fb09 28f3 09cf cf08
000000b0: f5f2 fef3 0b0a dee9 ccff dc02 06f2 2313
000000c0: fdf1 0fe4 f9ee f6f6 05fa fff4 0614 16f3
000000d0: f300 ff02 04ff e6ed e9e1 d3d8 e2fa f4f3
000000e0: 17e2 0ef9 f608 1a18 f74b ff01 d8d3 0f08
000000f0: 15e8 f4dd ec27 1aec e3ec d8e2 19f4 f4de

sequential/depthwise_conv2d_1/depthwise;StatefulPartitionedCall/sequential/depthwise_conv2d_1/depthwise i1 [1, 3, 3, 217] scale=0.007106787 zero_point=0
-0.14213574 0.13502896 0.042640723 0.5259023 0.28427148 0.049747508 0.6751448 -0.5614362
0.25584432 -0.39087328 0.51879543 -0.25584432 0.06396108 0.35533935 0.22741719 0.014213574
0.41930044 0.028427148 -0.007106787 -0.24163076 -0.18477647 -0.27005792 -0.08528145 -0.07817466
0.13502896 0.028427148 0.099495016 -0.2771647 0.014213574 -0.5614362 0.049747508 0.3198054
0.4477276 -0.18477647 -0.035533935 -0.056854296 -0.36244613 -0.433514 -0.3837665 0.056854296
0.27005792 0.39087328 -0.2771647 -0.13502896 -0.12792216 -0.106601804 -0.12081538 0.15634932
0.19188325 -0.6111837 -0.21320361 0.07817466 -0.014213574 0.17766967 0.53300905 0.29848507
0.31269863 0.17766967 -0.14924254 0.021320362 -0.37665972 -0.41219366 0.29137826 -0.3269122
-0.1634561 -0.29848507 0.35533935 -0.021320362 0.3269122 0.19899003 0.4974751 -0.12081538
-0.042640723 0.08528145 0.042640723 -0.08528145 -0.028427148 0.08528145 0.07106787 0.45483437
0.17766967 -0.24873754 -0.46194115 0.092388235 -0.056854296 0.53300905 0.19188325 0.29848507
0.42640722 -0.51879543 -0.12081538 0.007106787 0.3837665 -0.18477647 0.48326153 0.092388235
-0.30559185 0.056854296 0.3198054 0.433514 -0.37665972 -0.47615474 0.39087328 0.46904793
-0.14924254 -0.20609683 0.25584432 -0.12081538 0.39087328 0.23452397 -0.3269122 -0.1705629
0.099495016 -0.41930044 0.37665972 0.4903683 -0.1705629 0.07817466 -0.3837665 0.042640723
0.18477647 0.21320361 -0.2771647 0.6040769 -0.07106787 -0.11370859 -0.34823257 -0.2771647
0.36244613 0.0 0.4903683 -0.6040769 -0.25584432 0.1634561 -0.06396108 0.3411258
0.1634561 -0.39087328 0.106601804 0.19899003 -0.25584432 0.4477276 0.08528145 -0.12792216
0.46904793 -0.3269122 0.0 0.14213574 -0.37665972 -0.40508687 0.4903683 0.41219366
-0.056854296 0.19188325 -0.1634561 -0.042640723 -0.056854296 0.12081538 -0.3837665 -0.47615474
-0.28427148 0.035533935 0.15634932 -0.042640723 0.4406208 -0.5259023 -0.3837665 0.0
0.15634932 0.021320362 0.41930044 -0.5614362 -0.042640723 -0.37665972 0.3411258 -0.007106787
-0.056854296 0.34823257 0.24873754 -0.29848507 -0.056854296 -0.39798006 0.27005792 -0.07817466
-0.042640723 0.22741719 -0.11370859 0.4974751 0.6467176 0.41930044 0.07817466 0.014213574
0.30559185 -0.12081538 -0.007106787 -0.22741719 0.29848507 -0.21320361 0.13502896 0.0
0.5472226 -0.3269122 0.4974751 -0.27005792 -0.08528145 0.042640723 -0.6182905 -0.433514
-0.13502896 0.35533935 0.07106787 0.06396108 -0.12792216 0.25584432 -0.14213574 -0.34823257
-0.14924254 -0.20609683 -0.26295114 0.12792216 -0.2203104 0.042640723 0.5898633 0.007106787
-0.092388235 0.14924254 -0.2771647 0.035533935 0.028427148 0.6467176 -0.28427148 -0.23452397
-0.39798006 0.12792216 -0.14924254 0.18477647 0.092388235 -0.24163076 -0.035533935 -0.41930044
-0.36955294 -0.31269863 0.4974751 0.37665972 -0.08528145 -0.46194115 -0.106601804 -0.11370859
0.099495016 0.26295114 0.028427148 -0.106601804 -0.3269122 -0.14213574 0.37665972 0.014213574
00000000: ec13 064a 2807 5fb1 24c9 49dc 0932 2002
00000010: 3b04 ffde e6da f4f5 1304 0ed9 02b1 072d
00000020: 3fe6 fbf8 cdc3 ca08 2637 d9ed eef1 ef16
00000030: 1baa e20b fe19 4b2a 2c19 eb03 cbc6 29d2
00000040: e9d6 32fd 2e1c 46ef fa0c 06f4 fc0c 0a40
00000050: 19dd bf0d f84b 1b2a 3cb7 ef01 36e6 440d
00000060: d508 2d3d cbbd 3742 ebe3 24ef 3721 d2e8
00000070: 0ec5 3545 e80b ca06 1a1e d955 f6f0 cfd9
00000080: 3300 45ab dc17 f730 17c9 0f1c dc3f 0cee
00000090: 42d2 0014 cbc7 453a f81b e9fa f811 cabd
000000a0: d805 16fa 3eb6 ca00 1603 3bb1 facb 30ff
000000b0: f831 23d6 f8c8 26f5 fa20 f046 5b3b 0b02
000000c0: 2bef ffe0 2ae2 1300 4dd2 46da f406 a9c3
000000d0: ed32 0a09 ee24 eccf ebe3 db12 e106 5301
000000e0: f315 d905 045b d8df c812 eb1a 0dde fbc5
000000f0: ccd4 4635 f4bf f1f0 0e25 04f1 d2ec 3502

sequential/conv2d_2/Conv2D;StatefulPartitionedCall/sequential/conv2d_2/Conv2D f4 [217]
0.0 0.0 0.0 0.0 0.0 0.0 0.0 0.0
0.0 0.0 0.0 0.0 0.0 0.0 0.0 0.0
0.0 0.0 0.0 0.0 0.0 0.0 0.0 0.0
0.0 0.0 0.0 0.0 0.0 0.0 0.0 0.0
0.0 0.0 0.0 0.0 0.0 0.0 0.0 0.0
0.0 0.0 0.0 0.0 0.0 0.0 0.0 0.0
0.0 0.0 0.0 0.0 0.0 0.0 0.0 0.0
0.0 0.0 0.0 0.0 0.0 0.0 0.0 0.0
0.0 0.0 0.0 0.0 0.0 0.0 0.0 0.0
0.0 0.0 0.0 0.0 0.0 0.0 0.0 0.0
0.0 0.0 0.0 0.0 0.0 0.0 0.0 0.0
0.0 0.0 0.0 0.0 0.0 0.0 0.0 0.0
0.0 0.0 0.0 0.0 0.0 0.0 0.0 0.0
0.0 0.0 0.0 0.0 0.0 0.0 0.0 0.0
0.0 0.0 0.0 0.0 0.0 0.0 0.0 0.0
0.0 0.0 0.0 0.0 0.0 0.0 0.0 0.0
0.0 0.0 0.0 0.0 0.0 0.0 0.0 0.0
0.0 0.0 0.0 0.0 0.0 0.0 0.0 0.0
0.0 0.0 0.0 0.0 0.0 0.0 0.0 0.0
0.0 0.0 0.0 0.0 0.0 0.0 0.0 0.0
0.0 0.0 0.0 0.0 0.0 0.0 0.0 0.0
0.0 0.0 0.0 0.0 0.0 0.0 0.0 0.0
0.0 0.0 0.0 0.0 0.0 0.0 0.0 0.0
0.0 0.0 0.0 0.0 0.0 0.0 0.0 0.0
0.0 0.0 0.0 0.0 0.0 0.0 0.0 0.0
0.0 0.0 0.0 0.0 0.0 0.0 0.0 0.0
0.0 0.0 0.0 0.0 0.0 0.0 0.0 0.0
0.0
00000000: 0000 0000 0000 0000 0000 0000 0000 0000
00000010: 0000 0000 0000 0000 0000 0000 0000 0000
00000020: 0000 0000 0000 0000 0000 0000 0000 0000
00000030: 0000 0000 0000 0000 0000 0000 0000 0000
00000040: 0000 0000 0000 0000 0000 0000 0000 0000
00000050: 0000 0000 0000 0000 0000 0000 0000 0000
00000060: 0000 0000 0000 0000 0000 0000 0000 0000
00000070: 0000 0000 0000 0000 0000 0000 0000 0000
00000080: 0000 0000 0000 0000 0000 0000 0000 0000
00000090: 0000 0000 0000 0000 0000 0000 0000 0000
000000a0: 0000 0000 0000 0000 0000 0000 0000 0000
000000b0: 0000 0000 0000 0000 0000 0000 0000 0000
000000c0: 0000 0000 0000 0000 0000 0000 0000 0000
000000d0: 0000 0000 0000 0000 0000 0000 0000 0000
000000e0: 0000 0000 0000 0000 0000 0000 0000 0000
000000f0: 0000 0000 0000 0000 0000 0000 0000 0000
00000100: 0000 0000 0000 0000 0000 0000 0000 0000
00000110: 0000 0000 0000 0000 0000 0000 0000 0000
00000120: 0000 0000 0000 0000 0000 0000 0000 0000
00000130: 0000 0000 0000 0000 0000 0000 0000 0000
00000140: 0000 0000 0000 0000 0000 0000 0000 0000
00000150: 0000 0000 0000 0000 0000 0000 0000 0000
00000160: 0000 0000 0000 0000 0000 0000 0000 0000
00000170: 0000 0000 0000 0000 0000 0000 0000 0000
00000180: 0000 0000 0000 0000 0000 0000 0000 0000
00000190: 0000 0000 0000 0000 0000 0000 0000 0000
000001a0: 0000 0000 0000 0000 0000 0000 0000 0000
000001b0: 0000 0000 0000 0000 0000 0000 0000 0000
000001c0: 0000 0000 0000 0000 0000 0000 0000 0000
000001d0: 0000 0000 0000 0000 0000 0000 0000 0000
000001e0: 0000 0000 0000 0000 0000 0000 0000 0000
000001f0: 0000 0000 0000 0000 0000 0000 0000 0000
00000200: 0000 0000 0000 0000 0000 0000 0000 0000
00000210: 0000 0000 0000 0000 0000 0000 0000 0000
00000220: 0000 0000 0000 0000 0000 0000 0000 0000
00000230: 0000 0000 0000 0000 0000 0000 0000 0000
00000240: 0000 0000 0000 0000 0000 0000 0000 0000
00000250: 0000 0000 0000 0000 0000 0000 0000 0000
00000260: 0000 0000 0000 0000 0000 0000 0000 0000
00000270: 0000 0000 0000 0000 0000 0000 0000 0000
00000280: 0000 0000 0000 0000 0000 0000 0000 0000
00000290: 0000 0000 0000 0000 0000 0000 0000 0000
000002a0: 0000 0000 0000 0000 0000 0000 0000 0000
000002b0: 0000 0000 0000 0000 0000 0000 0000 0000
000002c0: 0000 0000 0000 0000 0000 0000 0000 0000
000002d0: 0000 0000 0000 0000 0000 0000 0000 0000
000002e0: 0000 0000 0000 0000 0000 0000 0000 0000
000002f0: 0000 0000 0000 0000 0000 0000 0000 0000
00000300: 0000 0000 0000 0000 0000 0000 0000 0000
00000310: 0000 0000 0000 0000 0000 0000 0000 0000
00000320: 0000 0000 0000 0000 0000 0000 0000 0000
00000330: 0000 0000 0000 0000 0000 0000 0000 0000
00000340: 0000 0000 0000 0000 0000 0000 0000 0000
00000350: 0000 0000 0000 0000 0000 0000 0000 0000
00000360: 0000 0000

sequential/conv2d_2/Conv2D;StatefulPartitionedCall/sequential/conv2d_2/Conv2D1 i1 [217, 1, 1, 217] scale=0.018793734 zero_point=0
0.056381203 -0.90209925 -0.24431854 -0.26311228 0.5074308 0.63898695 -0.6577807 0.1691436
-0.52622455 -0.43225586 0.1691436 0.11276241 -0.037587468 -0.20673107 0.54501826 -0.22552481
0.54501826 -0.52622455 -0.20673107 -0.24431854 -0.1691436 -0.73295563 -0.3382872 -0.5826057
0.075174935 0.13155614 -0.31949347 0.0 0.15034987 -0.7141619 -0.056381203 -0.037587468
0.3946684 -0.90209925 1.2215927 0.018793734 -0.43225586 0.3382872 -0.281906 -0.18793733
0.0 -0.24431854 -0.075174935 -0.31949347 -0.1691436 -0.9584804 0.13155614 -0.3946684
0.52622455 0.018793734 0.075174935 0.037587468 0.09396867 -0.4886371 0.18793733 -0.037587468
-0.056381203 -0.35708094 0.45104963 -0.3382872 0.075174935 -0.056381203 -0.11276241 -0.22552481
0.018793734 -0.52622455 -0.09396867 -0.43225586 -0.4886371 -0.20673107 0.7893368 -0.46984336
-0.6765744 -0.62019324 -0.1691436 1.2215927 -0.3946684 -0.1691436 0.018793734 0.037587468
0.62019324 -0.63898695 -0.75174934 -0.62019324 -0.73295563 -0.018793734 -0.18793733 -0.20673107
0.281906 -0.281906 0.15034987 0.8645117 0.8645117 -0.4886371 -0.018793734 0.056381203
-0.13155614 -0.09396867 0.5074308 0.26311228 0.1691436 -0.037587468 0.281906 -0.5074308
0.11276241 0.3946684 0.018793734 0.563812 0.1691436 -0.15034987 -0.35708094 -0.018793734
-0.056381203 0.30069974 0.54501826 0.43225586 -0.15034987 -0.7893368 -0.3382872 -0.281906
0.037587468 -0.1691436 0.13155614 -0.7141619 0.3946684 -0.018793734 0.31949347 -0.15034987
0.52622455 0.54501826 0.20673107 0.41346213 0.24431854 0.46984336 0.13155614 0.056381203
0.6013995 -0.6953682 0.37587467 -0.18793733 -0.056381203 0.18793733 0.15034987 -0.80813056
0.4886371 0.1691436 0.5074308 0.281906 0.1691436 0.4886371 0.54501826 0.45104963
0.52622455 -0.30069974 0.24431854 -0.62019324 0.0 -0.7705431 0.22552481 -0.41346213
0.22552481 -0.20673107 0.20673107 -0.4886371 -0.5074308 0.09396867 0.1691436 0.281906
-0.52622455 -0.54501826 0.18793733 -0.6953682 -0.13155614 0.3382872 -0.15034987 0.09396867
0.018793734 -0.5074308 -0.52622455 -0.15034987 -0.281906 -0.62019324 -0.056381203 0.11276241
-0.41346213 -0.43225586 0.46984336 0.15034987 0.563812 -0.62019324 0.43225586 0.45104963
-0.8645117 -0.37587467 -0.46984336 0.075174935 -0.52622455 -1.0524491 -0.45104963 -0.6577807
-0.30069974 -0.018793734 0.22552481 -0.3382872 -0.037587468 -0.31949347 0.1691436 -0.563812
0.7141619 -0.22552481 -1.7478173 -1.0148616 -0.075174935 0.20673107 -0.13155614 0.30069974
0.62019324 1.3343551 -0.37587467 0.3946684 -0.82692426 -0.18793733 -0.9960679 -0.3382872
-0.1691436 0.80813056 -0.1691436 -0.09396867 0.09396867 -0.45104963 -0.31949347 0.9584804
-0.26311228 -0.22552481 1.1840053 -0.056381203 0.37587467 -0.09396867 -0.09396867 -0.18793733
0.13155614 -0.563812 0.6953682 -0.056381203 -0.82692426 -0.7705431 -0.018793734 0.3946684
1.5974674 0.7141619 -0.24431854 0.31949347 -0.24431854 0.09396867 0.1691436 -0.8645117
00000000: 03d0 f3f2 1b22 dd09 e4e9 0906 fef5 1df4
00000010: 1de4 f5f3 f7d9 eee1 0407 ef00 08da fdfe
00000020: 15d0 4101 e912 f1f6 00f3 fcef f7cd 07eb
00000030: 1c01 0402 05e6 0afe fded 18ee 04fd faf4
00000040: 01e4 fbe9 e6f5 2ae7 dcdf f741 ebf7 0102
00000050: 21de d8df d9ff f6f5 0ff1 082e 2ee6 ff03
00000060: f9fb 1b0e 09fe 0fe5 0615 011e 09f8 edff
00000070: fd10 1d17 f8d6 eef1 02f7 07da 15ff 11f8
00000080: 1c1d 0b16 0d19 0703 20db 14f6 fd0a 08d5
00000090: 1a09 1b0f 091a 1d18 1cf0 0ddf 00d7 0cea
000000a0: 0cf5 0be6 e505 090f e4e3 0adb f912 f805
000000b0: 01e5 e4f8 f1df fd06 eae9 1908 1edf 1718
000000c0: d2ec e704 e4c8 e8dd f0ff 0cee feef 09e2
000000d0: 26f4 a3ca fc0b f910 2147 ec15 d4f6 cbee
000000e0: f72b f7fb 05e8 ef33 f2f4 3ffd 14fb fbf6
000000f0: 07e2 25fd d4d7 ff15 5526 f311 f305 09d2
