Homeworks/Homework_03/HW3_ex1_Group4/notebook/cnn.tflite (tflite, 71560 bytes, 7 tensors)

unknown_0 f4 [64]
00000000: bf1e a73e 1624 583f fd5e 483f 445d 24bf
00000010: 9a6a b8bd 01ae bbbe d304 ee3d 39c5 64be
00000020: 6ce4 40be 5e47 0ebf 2df2 0dbf 59ca 4cbe
00000030: 3d17 31bf 3896 efbd da90 52be c2eb b73d
00000040: de5e 253f c59d 2e3f 6076 2b3f 8733 03be
00000050: 1072 593f c236 b6be 125a 863f 867f 873f
00000060: cf95 f7be 8067 cabd c2b2 48be b6fb 80be
00000070: ad96 58bf 1aae 95be 9f4d 42be 9460 a4be
00000080: bb4c 0c3d f42f fd3e 5405 babe 7fdc 57be
00000090: c173 61be 6a40 ee3e f833 0dbe 5619 5f3f
000000a0: ceaf 163f 1c31 7f3f 9c5d a6be 6c92 2bbe
000000b0: 7a33 8fbe 21e5 423e 8ae5 9bbe 5c75 4a3f
000000c0: 269d fabd 309e debd 1092 58be c222 5a3d
000000d0: 5b5e 90be bb4e 75bb f5b5 5cbe eb70 16be
000000e0: ea5c 20bf ab8a 833f 0486 2abf 488a dc3d
000000f0: 1672 2cbf 4445 6dbe 2576 42be 7650 b4be
0.32640645 0.8443006 0.7826994 -0.6420481 -0.09004708 -0.36656192 0.11622014 -0.2234086
-0.18837136 -0.5557765 -0.55447656 -0.19999065 -0.69176084 -0.11698574 -0.20563069 0.08980514
0.6459788 0.6820949 0.669775 -0.12812625 0.8493967 -0.35588652 1.0496237 1.0585792
-0.48356482 -0.09883022 -0.1959944 -0.2519204 -0.84604913 -0.2923439 -0.18974923 -0.32104933
0.034252863 0.49450648 -0.3633219 -0.21080206 -0.22016813 0.4653352 -0.13789356 0.87148035
0.58862007 0.9968431 -0.32493293 -0.16755074 -0.2796896 0.19032718 -0.30448562 0.79085326
-0.12237005 -0.108700156 -0.21149468 0.053255804 -0.28196988 -0.003743096 -0.21553786 -0.14691512
-0.62641776 1.0276693 -0.6661074 0.107685626 -0.6736158 -0.23170954 -0.18990381 -0.35217637

unknown_2 f4 [64]
00000000: 2290 563f 7494 4abd 7e8d 6e3f 6d18 8dbc
00000010: 50b4 45bd ee07 b4bc bc44 013f 5529 7dbc
00000020: 79f1 12bd 5182 0e3f cc61 1f3f 1750 8a3f
00000030: 205d 0ebc f996 6cbc 8129 4dbc 03fb 66bd
00000040: e06f 6b3f 37ec 4f3f b466 aabc f25e 0ebd
00000050: 71ca 7e3f d43d 90bc 5c64 7b3f 4905 74bc
00000060: 2c27 863f 6a47 b4bc 0000 0000 e37b 683f
00000070: 3c2b 0fbd cf8e 553f c996 2abd 9ad2 5b3f
00000080: c46b 793f b34d 7b3f 902d 00bd ed45 33bd
00000090: 7a1a 76bc 0cd0 493f f118 883f 8bb2 1abd
000000a0: c24f 30bc 2e9f 1ebd 03f2 6b3f c254 683d
000000b0: f7ca 29bc 625d 513f d191 3d3f c9e7 6fbc
000000c0: bc6a a53e c9b6 a4bc 9fe3 cbbd fb76 7e3f
000000d0: 9560 9cbc fe99 1bbc b69a 6d3f 54e2 86bd
000000e0: 2c20 4e3f bc0e 81bc 9e1d 493f 70d8 96bc
000000f0: e25a 5f3f 4df7 5b3f caea 513f a032 07bd
0.8381368 -0.049457982 0.9318465 -0.017223561 -0.048267663 -0.021976437 0.50495505 -0.015451749
-0.035874818 0.556676 0.622586 1.0805691 -0.008689195 -0.014440292 -0.012522102 -0.056391727
0.9196758 0.8121981 -0.020800926 -0.034758516 0.9952765 -0.017607607 0.9820001 -0.014893838
1.0480704 -0.02200671 0.0 0.90814036 -0.03495334 0.83421034 -0.041647706 0.8586823
0.9743006 0.98165435 -0.03129345 -0.04376786 -0.015020961 0.7883308 1.0632612 -0.037767928
-0.010761203 -0.038726024 0.92166156 0.056721456 -0.010363332 0.81783116 0.74050623 -0.014642664
0.32307994 -0.02010669 -0.09955525 0.994003 -0.019089023 -0.009497164 0.92814195 -0.065861374
0.8051784 -0.015754096 0.7856082 -0.018413752 0.8724805 0.85924226 0.81998885 -0.033007264

unknown_4 f4 [2]
00000000: 11fe 0e3f 9bc7 9b3f
0.55856425 1.217029

sequential/dense/MatMul;StatefulPartitionedCall/sequential/dense/MatMul f4 [64, 256]
00000000: 6a7b 12be c270 043e 7b54 8d3d f71d 99be
00000010: 0e90 f33c 73a3 4ebd a070 2ebe c1a5 11be
00000020: f75f 073d 5113 6bbe 967e 543d 42da 83bd
00000030: 9f8c a23c 5067 d03d b466 22be 0a55 65be
00000040: d89d 3abc 35a5 7f3c 84c7 4d3e 87ab 403e
00000050: b6b6 29bb 73a9 553d 1657 ce3e 762c b83e
00000060: 9177 c8be fdb9 983c d887 06bd 4c21 aabd
00000070: d6f0 b2bc 6754 36be f6fb 093e 895d bebb
00000080: e1a6 aebd 4420 eb3d f65f c3bd 0755 7bbd
00000090: 5302 123d b1f2 283e f0e6 92bd ea10 38bd
000000a0: da53 50bd 4533 6b3e 754d a13e b481 133e
000000b0: b423 e93d 8708 333e 6987 e33d 8fc2 9bbd
000000c0: e378 c7bd 2262 e33d 6a33 463d db91 97bd
000000d0: f16b 673d 09d2 bd3d 59e3 92bd dad0 46be
000000e0: 8923 433e 18bc 0d3e 7de3 ba3c 9c9a e0bd
000000f0: c837 a23d ac01 8cbc 81de 493d 1cad dcbd
00000100: 86f1 65bd e444 293e 9198 0f3e 2889 adbe
00000110: 0918 dfbd d6a7 ee3c e629 eb3d dbc3 a2bd
00000120: 51b6 aebd 4112 853d 454f a4bd d462 06bd
00000130: 0db1 dbbd 531d ef3d 2d16 743d f436 16bd
00000140: 8955 593d 3819 9dbd 2b3c 5fbd 0313 a33d
00000150: 995e 033e 6975 b6bd c900 e33e 6ec9 933e
00000160: a53f 89bd 5a1b ffbb 40e7 a53d c6a1 3ebd
00000170: 98bb cbbe 563b d2bd 5152 ff3d beb8 1cbe
00000180: e3b2 2dbe 2beb 4ebd ea91 2abb 5349 a9bd
00000190: 0d32 b2bd 894b 91bd ea78 813d 6c17 b9bd
000001a0: f442 203d b667 953d 1c0a 563e 4f71 083e
000001b0: bd31 353e 9059 1dbe 34ef ccbd 341d 433e
000001c0: bd05 e43d 8f7b cb3b 62a8 5f3e 9859 853d
000001d0: f0ac cabd ace7 dc3d ea4d 083e b275 66bd
000001e0: 8ad8 a0bd d011 773e 260d 8c3e 4e1b 843e
000001f0: 1817 6b3e a200 e53d 9075 d33d fffc 04be
00000200: 5fe3 31be 4de7 2e3e c11e 8c3d 47eb dabe
00000210: 442a a23d 2de5 7a3c 77b5 f3be ff25 e3bd
00000220: c810 c1bd f674 01be 193c c93d 85d0 eebb
00000230: 9c71 3d3f f0ae 173e b713 45be f51f 1bbe
00000240: 9e1e 3b3d 17a0 35be 1f07 b8bd 68df 353e
00000250: 516a 863e 5e98 213d eebf 013f cff9 e63e
00000260: e9e9 893e 08b0 fd3d bca1 033c 3a0f afbd
00000270: 410c bbbe 5096 2c3d 8c5c c93d 5a59 04be
00000280: 8e72 a8be f370 cf3c 28dd e2bd effe 5abe
00000290: eb44 3dbe 22a6 10be 17b0 0cbe 190e 35bb
000002a0: 0386 0bbe 5b1a e23d 45a6 3a3d c731 a6bc
000002b0: 8b4c 683d 4868 8e3d fe1e d43c cd8e dfbb
000002c0: b19a d33c 1342 ec3c 74e2 0abe f80a ecbe
000002d0: 707a 2abe bb39 01bf 1bbf fcbb 60c2 fdbd
000002e0: 061d 273f 7105 833e 8ee3 65bf f220 2abf
000002f0: 1059 283f f5c4 09be 2ed8 f03c 619c 1d3d
00000300: d6dd e33e 90f8 de3e b4af 153f ceba 8a3f
00000310: 57f6 cc3d 3e66 173e 2354 333f bdf3 fd3d
00000320: d27c 8d3e 8aea 743e 240c 313e 90cd 013e
00000330: e6bb 47bf 34c6 40be 3c0c b43d 5628 013f
00000340: 69b6 003f 422f b2be 5865 d6be 6603 eb3c
00000350: 7b13 2b3f 2998 743e 9d30 503f c2b8 5d3f
00000360: 558c db3e 8527 2b3e a877 e03d e770 6d3e
00000370: 5534 523f 2bc1 2a3e ee00 823d 53d5 ac3e
00000380: e6fa 483f 519e f53e 5556 a03d b856 a43e
00000390: 563d 5b3c 2416 9bbe 2fcb a03d 2e21 6c3e
000003a0: 7cae 873d 3fe6 933e 2a29 1abd 489d 623d
000003b0: dcc0 be3d edc7 89be c0d8 df3d 7831 e93e
000003c0: 12ed 783d d9b7 0f3d 6bf8 613e ad11 253f
000003d0: 5861 743d f3b8 cf3e 068a 393e fa14 1abe
000003e0: b02a e5bf 9e3d 3c3f 481a 683f 0453 0c3f
000003f0: 4ffd 8bbf e0f6 3fbe eb27 813d 1a66 5c3e
-0.14304891 0.12933639 0.06900879 -0.29905674 0.029731777 -0.050448846 -0.1703515 -0.14223386
0.033050504 -0.22956587 0.051878534 -0.06438114 0.019842444 0.10175955 -0.1585949 -0.22395721
-0.011390172 0.015603353 0.2009564 0.18815432 -0.0025896258 0.052163552 0.40300816 0.3597142
-0.39153722 0.018643374 -0.032844394 -0.08307132 -0.021843355 -0.17805634 0.13475022 -0.00580949
-0.085279234 0.114807636 -0.095397875 -0.061360385 0.035646748 0.1649883 -0.07172954 -0.044938006
-0.050861217 0.22968777 0.31504408 0.14404947 0.11383763 0.17483722 0.11109812 -0.076054685
-0.09739854 0.11102702 0.048388876 -0.074008666 0.056499425 0.09268577 -0.071722694 -0.19415608
0.19056524 0.13841283 0.022813553 -0.109669894 0.07920796 -0.017090641 0.049284462 -0.107752055
-0.056138538 0.16530186 0.14023043 -0.33893704 -0.10893256 0.029132765 0.11482601 -0.07947513
-0.08530868 0.06497622 -0.08022932 -0.032809094 -0.10727129 0.11675515 0.05959146 -0.0366735
0.05306009 -0.07670826 -0.05450074 0.079626106 0.12829055 -0.08909113 0.44336537 0.28864616
-0.06701592 -0.007785243 0.08100748 -0.046540998 -0.3979156 -0.10265224 0.124668725 -0.15304849
-0.16962771 -0.050517242 -0.0026026913 -0.082659386 -0.08700953 -0.07094485 0.06321891 -0.090376705
0.03912635 0.07295172 0.20902294 0.13324474 0.17694755 -0.15366197 -0.10006562 0.19054109
0.11133907 0.0062097977 0.21841577 0.06511229 -0.098962665 0.107863754 0.13310972 -0.056264587
-0.078538015 0.24127889 0.2735378 0.25802082 0.22958028 0.11181761 0.10325158 -0.12987135
-0.17371891 0.17080422 0.06841803 -0.42757627 0.07918218 0.015313429 -0.47599384 -0.110912316
-0.09427029 -0.12642273 0.09825916 -0.007288041 0.7400148 0.14812827 -0.19245802 -0.1514891
0.045683496 -0.1773685 -0.08985733 0.17761004 0.26252988 0.03945195 0.50683486 0.45112464
0.26936272 0.12387091 0.008034166 -0.08547826 -0.36532786 0.042135537 0.09832105 -0.1292471
-0.32899898 0.025322413 -0.110773385 -0.21386312 -0.18483321 -0.14125875 -0.13739048 -0.002762681
-0.1362534 0.11040183 0.045568723 -0.020287408 0.056713622 0.06953484 0.025893684 -0.006822443
0.025830599 0.0288401 -0.13562948 -0.46102118 -0.16648269 -0.50478715 -0.0077132112 -0.1239059
0.6527866 0.2559009 -0.89800346 -0.6645652 0.657609 -0.1345404 0.029399958 0.038479213
0.44505185 0.43549013 0.58471227 1.0838258 0.10007923 0.14785096 0.7005026 0.12400005
0.27634293 0.23917595 0.17289788 0.12676072 -0.78021085 -0.18825608 0.08791396 0.5045217
0.50278336 -0.3480168 -0.41874194 0.028688144 0.668266 0.2388617 0.8132418 0.86610043
0.42880502 0.16714294 0.109603226 0.231876 0.821111 0.1667525 0.063478336 0.33756503
0.7850784 0.47972348 0.078289665 0.3209741 0.013381323 -0.3029033 0.07851254 0.23059532
0.06625077 0.288866 -0.037636913 0.055325776 0.09314129 -0.26910344 0.10930014 0.45545554
0.060772963 0.03508744 0.2206742 0.64480096 0.059663147 0.40570793 0.18119058 -0.15047064
-1.7903652 0.7353152 0.906651 0.5481417 -1.0936679 -0.18746519 0.06306442 0.21523324

sequential/dense_1/MatMul;StatefulPartitionedCall/sequential/dense_1/MatMul f4 [2, 64]
00000000: 953f 4cbe 0432 083e 6898 09be b0d9 eebd
00000010: 4a2a 143d 7961 283e 63e3 abbd 0361 b03d
00000020: bb93 ffbd f61d 16be 8f20 96be 8510 833e
00000030: f08d 843e 17f8 5fbe 83c9 2b3b 3313 38bb
00000040: 08b6 1b3e 7566 233e 3d58 02be bc71 4cbe
00000050: c6ce 893d cccd e4bd a102 8b3e f6e3 25be
00000060: eb98 ae3e 3066 883e 4657 96be 9b00 a73e
00000070: 66ea 1abe a63c 68be 926f 61be 41fe 5ebe
00000080: c9de 1f3c 30f3 c5bb 87b4 5abd f696 553e
00000090: 3925 4d3e 28b7 69be f8df 323e e372 093e
000000a0: 3e54 963e 3782 653e b363 873d 7f8f 6b3d
000000b0: e536 a5bd aaf5 033f 3230 9abe 95b2 c1bd
000000c0: 329d ecbd 8769 ea3d 201b 2d3f ac95 173f
000000d0: ba84 903e 228c 163e 0938 4e3d c928 3abc
000000e0: 0437 bebd 849f 7ebd 4ea0 29be 8994 31be
000000f0: 27c8 783e 3a4c 6abe 2c31 a3be e705 2abe
00000100: 55bf 903e 73b8 82bc 3525 cb3e 28b3 1d3c
00000110: 6e58 0ebd e5cb 86be d9e2 e3bb 5dbf 65be
00000120: 6aaf f8bd 9e37 d8bc d965 f93d da0b e23e
00000130: 2a6a 303d 730d 28bd 294f 61be 9bd9 52be
00000140: a1e9 3f3e ec67 4d3d d080 eebc 14e7 52bc
00000150: 66fe b13e 6575 7fbe 7277 823e 5f02 29be
00000160: a8a2 963e 18d5 f5bd 20a7 173d 92a0 1f3e
00000170: 5059 19be 83cb 923e 59f1 11be d6df af3e
00000180: b978 af3e eaa0 be3e 7762 ac3c f838 a5bb
00000190: 125c b9bd 243d 893e 6db0 dd3e ebad 47be
000001a0: bdcc bcbd 82aa 8ebc d251 663e 3f37 02bf
000001b0: c01d c0bd ff5f 223e 944a 503e 0c7b 17be
000001c0: 9776 40bd 4bd9 32be a9ae 4bbd d9b4 8d3e
000001d0: dd50 39bd 3454 81be 058d 7c3e 4af9 243c
000001e0: 2e4e 1a3e 95b4 43be 35f4 3e3e c98c 48be
000001f0: c9e8 143e 9b6b bc3e 8b90 a53e b8aa abbd
-0.1994613 0.1330033 -0.13437045 -0.11662614 0.036173142 0.16443433 -0.0839298 0.086122535
-0.12479349 -0.14659867 -0.29321715 0.2559854 0.2588954 -0.21871983 0.002621264 -0.0028087616
0.15206158 0.15957053 -0.12728973 -0.19965261 0.06728892 -0.11172065 0.27150443 -0.16200241
0.34101042 0.26640463 -0.2936346 0.3261765 -0.15128478 -0.22679386 -0.22015217 -0.21776678
0.009757706 -0.006040953 -0.05339482 0.20858368 0.2003373 -0.22823775 0.1746825 0.13422732
0.29361147 0.22412954 0.06610813 0.057509895 -0.08067111 0.5154673 -0.30114895 -0.0945789
-0.1155342 0.11445909 0.67619514 0.59212756 0.28226262 0.14701894 0.050346408 -0.011362263
-0.09287837 -0.062163845 -0.16565058 -0.17341818 0.24295102 -0.2288064 -0.31873453 -0.16603814
0.28270975 -0.015957093 0.39676824 0.009625234 -0.034752302 -0.26327434 -0.0069545326 -0.2243628
-0.121428326 -0.026393708 0.12177629 0.44149667 0.043069996 -0.04102845 -0.22002853 -0.20590822
0.18741466 0.050147936 -0.029114157 -0.012872476 0.34764403 -0.24947126 0.25481755 -0.16504811
0.29420972 -0.12003535 0.037024617 0.15588596 -0.14975476 0.28670892 -0.14252223 0.3435046
0.34271792 0.37232143 0.021043045 -0.0050421916 -0.09050764 0.2680446 0.43298665 -0.19499938
-0.09218738 -0.017415289 0.2249215 -0.5086555 -0.09380674 0.15856932 0.2034095 -0.14793032
-0.046988096 -0.17465703 -0.049727116 0.27677038 -0.045243133 -0.25259554 0.2466317 0.010069201
0.15068886 -0.19111855 0.18647845 -0.19584955 0.14541925 0.36800846 0.3233684 -0.083821714

sequential/conv1d/conv1d;StatefulPartitionedCall/sequential/conv1d/conv1d f4 [64]
00000000: 0000 0000 0000 0000 0000 0000 0000 0000
00000010: 0000 0000 0000 0000 0000 0000 0000 0000
00000020: 0000 0000 0000 0000 0000 0000 0000 0000
00000030: 0000 0000 0000 0000 0000 0000 0000 0000
00000040: 0000 0000 0000 0000 0000 0000 0000 0000
00000050: 0000 0000 0000 0000 0000 0000 0000 0000
00000060: 0000 0000 0000 0000 0000 0000 0000 0000
00000070: 0000 0000 0000 0000 0000 0000 0000 0000
00000080: 0000 0000 0000 0000 0000 0000 0000 0000
00000090: 0000 0000 0000 0000 0000 0000 0000 0000
000000a0: 0000 0000 0000 0000 0000 0000 0000 0000
000000b0: 0000 0000 0000 0000 0000 0000 0000 0000
000000c0: 0000 0000 0000 0000 0000 0000 0000 0000
000000d0: 0000 0000 0000 0000 0000 0000 0000 0000
000000e0: 0000 0000 0000 0000 0000 0000 0000 0000
000000f0: 0000 0000 0000 0000 0000 0000 0000 0000
0.0 0.0 0.0 0.0 0.0 0.0 0.0 0.0
0.0 0.0 0.0 0.0 0.0 0.0 0.0 0.0
0.0 0.0 0.0 0.0 0.0 0.0 0.0 0.0
0.0 0.0 0.0 0.0 0.0 0.0 0.0 0.0
0.0 0.0 0.0 0.0 0.0 0.0 0.0 0.0
0.0 0.0 0.0 0.0 0.0 0.0 0.0 0.0
0.0 0.0 0.0 0.0 0.0 0.0 0.0 0.0
0.0 0.0 0.0 0.0 0.0 0.0 0.0 0.0

sequential/conv1d/conv1d;StatefulPartitionedCall/sequential/conv1d/conv1d1 f4 [64, 1, 3, 2]
00000000: 9989 d13d e6b3 e3bd 9060 303e 0428 acbe
00000010: e513 d8be d9c8 e73e bfa3 373d 6665 e0bd
00000020: 71e6 693d 902f 38bd c224 26be 137e c33e
00000030: e8cd d53d 2e00 61be 6e1d e13d 96cc a0bd
00000040: b737 bdbe 7b50 d63e 33bf 54bf 091d 033e
00000050: f83e 2e3e ce01 4dbe 1067 423f 3c52 083f
00000060: ae41 ad3d d6dc 763b 60e3 25b8 c6f6 6a3d
00000070: 907e 86bd 9d21 e1bc 35e3 093e 16ad 6cbc
00000080: a888 123e ddef e5bd 38f2 c6be 8575 503e
00000090: 45b6 043e e975 60be b7a8 173f c1b2 d0be
000000a0: 1917 4fbf eca0 3b3f 47f4 0dbe ec2d bdbd
000000b0: ae9a bd3c ed11 70bd 668f cd3d 4e84 493e
000000c0: e02f 853d a77b 1c3d 5c3e b43d 3d1c 64bd
000000d0: 3264 27be 5349 053d bc31 973d 16dd 8bbe
000000e0: a6a7 bb3d 04a1 bf3c b493 83be 428e 1d3e
000000f0: 44d7 68bd 021a 8ebe d03a 203d d7b3 88bd
00000100: e1ce b7bd 8026 ac3e 8bac acbc c02e c03d
00000110: 7d3a 7e3d 832a 6cbe 75d1 9dbd cd93 253e
00000120: 11ed 93bd af72 8dbe ba70 453e c789 0cbf
00000130: 4d16 80bd 37f2 9b3f 0cbc 31be 48bf 84bd
00000140: d0df 69be 27f9 353c badb cf3e 463b 433d
00000150: c845 6b3e 2c1d 0d3e 8b33 b03d 6fec e1bd
00000160: 02e7 a5be aaff f63c dc92 55bf 4142 a83d
00000170: 2464 0c3f 475a fcbe de8e 8a3e 5342 c73e
00000180: 05b4 fc3d 14ce 4bbe d9e5 12bc 4ea6 08be
00000190: 2d1a 7dbe 4a0c da3e 21a2 42be 5f71 36bc
000001a0: 32bb 023c 6d63 2bbd c40d c93e 469e 323d
000001b0: df0b 97bd f622 6ebe d853 16be cc57 013e
000001c0: f557 d83e c24c d13c 07aa fe3c b845 d23d
000001d0: 1ed5 f0bd 8207 00be 7b72 b03d 81c8 483d
000001e0: eb0b cf3d c221 5abe cae3 f33c 891a edbd
000001f0: ed86 5cbe e425 093f 4ddc 9d3d 5758 b8bd
00000200: 4ea1 623e 60d7 8dbc 262d c6be 1e7f 303d
00000210: 01ba 253e 19cb c73c 2d9e 873d 809f 07be
00000220: e610 a6be 0847 be3e 8e81 ab3d ccfd f2bb
00000230: b700 56bd 1d15 20be 63ff a8bd 7b0f ee3e
00000240: dada 1d3e 8cdd f2be 7a9f bcbd 2d84 9c3d
00000250: 3fa7 1bbe 66aa e63e 61f4 fa3d 3470 dcbb
00000260: 107a 3bbc 1436 123d 0b29 06be eb4a 0abc
00000270: 15cb 07be 6c43 1fbd 5334 153e 3961 e13b
00000280: e1c2 50bd 6117 ce3d 3dcb 773e 08c2 c7bb
00000290: 09d2 103e f2e3 a63d 2389 ddbe ce72 57bd
000002a0: 7be7 a7bd f72e 9e3d 2436 153d f747 b1bd
000002b0: ded5 70bc afff 473f 52be 153e 3f3f 98bd
000002c0: c065 2b3d b6f9 ce3c 1bc5 64be 6574 eb3c
000002d0: b039 d3bd 7682 b23d 4c1c 00bd 5ae8 e3bc
000002e0: 7f49 cb3d 6509 65bd a388 6ebe 2969 bebc
000002f0: 066d 053e 57fd 06be 92d1 023e d361 9b3e
00000300: 2edd 0dbe 0db7 97bb 45d2 873f e464 903e
00000310: f6a5 64bf 09ab 32be 79d8 873e 2220 c9be
00000320: 4157 513c 2865 35bd 05b9 06bf cc04 c13e
00000330: d264 7abe 2e78 04be 5410 083e 47ef 15bd
00000340: 7c9f 663d fcfe 8e3e 0e5f 5f3b 6c52 a2bd
00000350: 56f7 993e b2e7 163e 87ea adbe 0f1a f93b
00000360: 1040 883e e858 d63d ddc9 353d 1eaf 5d3b
00000370: 6b0d a2be 4ea2 c2bd bc94 29bd d6aa 27be
00000380: 485c d1bd f827 d13d f1f6 943e 0f21 cc3d
00000390: c6d6 2cbe e465 363d 0881 373c 30c6 3dbe
000003a0: 378a 073e fa3a 253e 8bcf d9bd 58b9 85be
000003b0: 7087 733e ec7a 0d3e 08ee 103e 931d ad3e
000003c0: cf41 9cbe 0815 4a3c 15f7 fb3d baf8 42be
000003d0: 00ed bc3e c3c1 8b3e fe94 4c3d 1b3a 69bc
000003e0: c6dc 0e3e 86de babc fcae c33c dae8 ae3e
000003f0: 6a5b 673e 8e88 f23c b315 d0bd f414 813e
0.10231323 -0.11118297 0.17224336 -0.3362428 -0.42202678 0.45270422 0.044833895 -0.1095684
0.05710453 -0.044967234 -0.1622496 0.38182124 0.10439664 -0.21972725 0.109919414 -0.07851522
-0.3695657 0.41858277 -0.83104247 0.12804045 0.17016208 -0.2002022 0.7593851 0.5325048
0.08459793 0.003766825 -3.9550825e-05 0.057364248 -0.06567109 -0.027481848 0.13465579 -0.014445564
0.14309943 -0.11227391 -0.38856673 0.2035733 0.12960155 -0.21919979 0.59241813 -0.40761378
-0.8089462 0.7329242 -0.13862716 -0.092372745 0.023145046 -0.058610845 0.10037117 0.19679376
0.06503272 0.03820386 0.088009566 -0.055690993 -0.16346815 0.03254063 0.07382533 -0.27317113
0.09162836 0.023392208 -0.25698626 0.15386298 -0.05684592 -0.27754217 0.039118588 -0.06674927
-0.08975006 0.33623123 -0.021078369 0.09383917 0.062067498 -0.23063092 -0.077059664 0.16169663
-0.07222951 -0.2762656 0.19281283 -0.5489773 -0.062542535 1.2183293 -0.1735689 -0.064817965
-0.22839284 0.011106766 0.40597326 0.04766395 0.22975838 0.1378066 0.08603581 -0.11031424
-0.32402807 0.030151207 -0.83427215 0.08215762 0.548403 -0.49287626 0.27062124 0.3891779
0.123390235 -0.19902831 -0.008965933 -0.1334469 -0.24717017 0.425875 -0.1900716 -0.011135428
0.007979201 -0.041842867 0.39268315 0.043607973 -0.07375311 -0.23255524 -0.14680421 0.12631148
0.42254606 0.025549296 0.031086935 0.10267204 -0.11759399 -0.12502864 0.086155854 0.04901934
0.10109695 -0.2130194 0.029771704 -0.11577327 -0.21535845 0.5357344 0.07708035 -0.090012245
0.22131845 -0.017314613 -0.3870632 0.04308998 0.16184236 0.024388837 0.066219665 -0.13244438
-0.32434767 0.37163568 0.0837432 -0.007415509 -0.052246775 -0.15633054 -0.08251836 0.46496186
0.15415516 -0.47434652 -0.09210105 0.07642398 -0.15200518 0.4505188 0.12253643 -0.006727243
-0.011442676 0.035696104 -0.13101594 -0.008440713 -0.13261063 -0.038882658 0.14570741 0.006878045
-0.0509671 0.10063053 0.24198623 -0.0060961284 0.14142622 0.08148946 -0.4326869 -0.05259972
-0.08198448 0.077238016 0.036428586 -0.08656304 -0.014699427 0.7812452 0.14623383 -0.07433938
0.041845083 0.025265556 -0.22340815 0.028742025 -0.103137374 0.0871629 -0.031276986 -0.027820755
0.09926128 -0.055917162 -0.2329431 -0.023243504 0.1302987 -0.13182579 0.12775257 0.3034807
-0.13853905 -0.0046299757 1.0611044 0.28201973 -0.89315736 -0.17448057 0.26532343 -0.39282328
0.012777151 -0.044285923 -0.5262607 0.37698972 -0.24452522 -0.1293647 0.13287479 -0.036605146
0.05630444 0.27928913 0.0034083757 -0.07925877 0.30071515 0.14736822 -0.33967993 0.0076019834
0.26611376 0.10466176 0.044381965 0.0033826302 -0.31650862 -0.095036134 -0.04140161 -0.16373762
-0.102226794 0.102127016 0.2909465 0.09967243 -0.16878805 0.044530764 0.011200197 -0.18532634
0.13236319 0.16135779 -0.10635289 -0.2611797 0.23782134 0.13816422 0.14153302 0.33811626
-0.30518958 0.012334116 0.123029865 -0.19040194 0.36899567 0.27296266 0.049946778 -0.014235045
0.13951406 -0.022811186 0.02388715 0.34162027 0.22593465 0.02960613 -0.10160389 0.25211298
