Homeworks/Homework_03/HW3_ex1_Group4/notebook/mlp.tflite (tflite, 75856 bytes, 6 tensors)

unknown_0 f4 [128]
0	0xba903a54	-0.0011003711
1	0xbea6a61d	-0.3254861
2	0xbf707e02	-0.9394227
3	0xbef57558	-0.4794109
4	0xbe4823b5	-0.19544871
5	0xbea940c7	-0.33057234
6	0xbea8708f	-0.32898375
7	0x3fa9551b	1.3229097
8	0xbf62f9f8	-0.8866267
9	0xbdba8e2a	-0.09109147
10	0xbe99431d	-0.29934016
11	0xbe9a92f4	-0.3019024
12	0xbf58678b	-0.84532994
13	0xbe972558	-0.2952068
14	0xbf18fa4f	-0.5975694
15	0xbf20b566	-0.6277679
16	0xbe251ff9	-0.16125478
17	0xbede92b4	-0.434713
18	0xbf160c14	-0.5861218
19	0xbf0f7e75	-0.56052333
20	0xbf470d67	-0.77754825
21	0x3f8cc5e1	1.0997888
22	0xbf9337d9	-1.1501418
23	0xbe448c91	-0.19194247
24	0xbf595a80	-0.8490372
25	0xbe7f5d3c	-0.2493791
26	0xbeb84ad5	-0.35994592
27	0xbec28530	-0.3799224
28	0x3fa74ccb	1.307031
29	0x3fa14014	1.259768
30	0xbea7854d	-0.32718888
31	0xbf462b5e	-0.77409923
32	0xbe9293ff	-0.28628537
33	0x3d91fe11	0.071285374
34	0xbf708677	-0.9395518
35	0xbeb0e517	-0.34549782
36	0xbef74184	-0.48292172
37	0xbed22186	-0.410412
38	0xbeef1f20	-0.46703434
39	0xbed97961	-0.42475417
40	0xbf54c88b	-0.83118504
41	0xbe79719c	-0.24359745
42	0xbe5afb36	-0.21384892
43	0xbeacb9ca	-0.33735496
44	0xbf07e688	-0.5308614
45	0xbf0cd5b6	-0.55013597
46	0xbe906c69	-0.2820771
47	0xbebeb3a0	-0.37246418
48	0xbf0a002d	-0.5390652
49	0x3fa37116	1.2768886
50	0xbef259bd	-0.4733409
51	0x3fa966b5	1.3234469
52	0xbea0dbe3	-0.3141776
53	0x3aea200d	0.0017862335
54	0xbe9742cb	-0.29543146
55	0xbf07d77b	-0.5306317
56	0xbec54542	-0.38529402
57	0xbed1d4f8	-0.40982795
58	0xbe3c2380	-0.18372917
59	0xbec9d753	-0.39422092
60	0xbeabb558	-0.33536792
61	0xbed844f8	-0.4224012
62	0xbeb131f5	-0.34608427
63	0xbed9a64f	-0.42509696
64	0x3f632590	0.8872919
65	0xbea5aa3b	-0.32356438
66	0xbe75bd80	-0.2399807
67	0xbe72e9c7	-0.23721991
68	0xbecb5288	-0.39711404
69	0xbeb44985	-0.3521234
70	0xbf63d18c	-0.8899162
71	0xbf2b079d	-0.6680849
72	0xbe87e09b	-0.26538548
73	0x3f7abd33	0.97944945
74	0xbf81b2e6	-1.013272
75	0xbecf279f	-0.40459916
76	0xbe9f4869	-0.31109932
77	0xbf113a78	-0.5672984
78	0x3e789932	0.2427719
79	0xbe21e495	-0.15809853
80	0xbcdfcc84	-0.0273192
81	0xbf845d91	-1.0341054
82	0x3f856966	1.042279
83	0xbf1a1ecd	-0.6020325
84	0xbefd5ed1	-0.49486402
85	0xbea8e7f5	-0.3298947
86	0xbeb013a0	-0.34389973
87	0xbed0c62f	-0.40776202
88	0x3fac8fec	1.3481421
89	0xbed529f5	-0.41633573
90	0xbecfc00f	-0.40576217
91	0xbeb94282	-0.36183554
92	0xbe840f47	-0.25792906
93	0xbf03a9aa	-0.5143076
94	0xbe840c14	-0.25790465
95	0x3f9e1924	1.2351422
96	0xbe99ee91	-0.30064824
97	0xbe8889ad	-0.26667538
98	0x3f85b2c9	1.0445186
99	0xbe71288c	-0.23550624
100	0xbeae79bb	-0.34077248
101	0xbf3245ba	-0.69637644
102	0x3f809199	1.0044433
103	0xbe6d522d	-0.23175879
104	0xbf9261af	-1.1436061
105	0x3fb2a973	1.3957962
106	0xbe330bdd	-0.17484994
107	0xbed4f390	-0.41592073
108	0xbeacc790	-0.33746004
109	0xbebe718c	-0.37196004
110	0xbeb43ca2	-0.3520251
111	0xbf7cfdae	-0.98824584
112	0xbf046edf	-0.51731676
113	0xbef9bef4	-0.48778498
114	0xbecb9f92	-0.3977018
115	0xbed88be8	-0.4229424
116	0xbed25f0e	-0.41088146
117	0xbe460d8d	-0.19341107
118	0xbf35e4f0	-0.71052456
119	0xbebe1a62	-0.37129503
120	0x3fa34bff	1.2757567
121	0xbe9105b3	-0.2832466
122	0xbfa0cef9	-1.2563163
123	0x3fb3743a	1.4019845
124	0xbf45446b	-0.7705752
125	0x3f4494a9	0.7678934
126	0x3fa4b6fc	1.2868342
127	0xbe9a2a6c	-0.3011049

unknown_2 f4 [128]
0	0xbd718e43	-0.058973562
1	0xbd67f6d3	-0.056631874
2	0xbc95b6b1	-0.01827559
3	0x3e4c387a	0.19943419
4	0xbd5844cd	-0.05279999
5	0xbd3db44c	-0.046314523
6	0xbcec1954	-0.028820671
7	0xbd085ab9	-0.033289645
8	0xbe1d9863	-0.15390162
9	0x3f8c14c3	1.0943836
10	0xbd358e4f	-0.04432517
11	0x3f8e28cb	1.1106199
12	0xbe0cf971	-0.1376703
13	0x3f7d7025	0.98999244
14	0x3d8586f0	0.06519878
15	0x3f59a8fd	0.8502348
16	0xbd98fc84	-0.074700385
17	0x3f8d6920	1.1047707
18	0xbd69ea00	-0.057107925
19	0xbdcbebfc	-0.0995712
20	0x3f9107fd	1.1330563
21	0xbd9fbcbe	-0.077996716
22	0xbd26d4bf	-0.040730234
23	0xbd3f4f84	-0.04670669
24	0x3f5c718f	0.86110777
25	0x3fa89e3d	1.317329
26	0xbd4b690b	-0.049660724
27	0x3fb9d19e	1.4517095
28	0x3fa4239f	1.2823371
29	0xbd60cf5f	-0.054885264
30	0x3fabdda7	1.3427018
31	0x3f91432a	1.1348622
32	0xbd788683	-0.060675155
33	0x3f798aeb	0.97477597
34	0x3f90eb7d	1.1321865
35	0x3f77d2c3	0.9680597
36	0x3f96e9ef	1.1790141
37	0x3f06446f	0.5244817
38	0xbd2f8066	-0.04284706
39	0x3f8b13d5	1.0865427
40	0x3f943387	1.1578225
41	0xbd8bdcc2	-0.068292156
42	0xbdb120cc	-0.08648834
43	0x3f9aa56e	1.2081735
44	0xbdebe3d9	-0.11518068
45	0xbeee55b2	-0.46549755
46	0x3f7df1d8	0.9919715
47	0xbbc4c9b3	-0.0060054897
48	0xbc6cd633	-0.014455366
49	0xbd30444b	-0.04303388
50	0x3fb18c9f	1.3871039
51	0x3f871cc0	1.0555649
52	0xbd2fc2b1	-0.04291028
53	0x3fc10e5c	1.5082507
54	0xbd9023a8	-0.07038051
55	0xbd446084	-0.047943607
56	0xbd0381be	-0.032106154
57	0xbccf340e	-0.025293376
58	0x3f07296e	0.5279759
59	0xbe7a1770	-0.24423003
60	0x3f2230f3	0.6335594
61	0xbdb1139b	-0.086463176
62	0x3f8057bd	1.0026776
63	0xbca9a841	-0.020710113
64	0x3ebafe82	0.365223
65	0x3fa9404b	1.3222746
66	0x3fae802f	1.3632869
67	0x3e3b54c8	0.1829406
68	0xbc2eb134	-0.010662366
69	0x3f4a5c7a	0.7904736
70	0xbd457968	-0.048211485
71	0xbd6b6ffb	-0.05747984
72	0x3f93f20f	1.1558245
73	0xbd392e63	-0.045210253
74	0x3fbec0a8	1.4902544
75	0x3f87527c	1.0572047
76	0x3f24250a	0.6411902
77	0x3f98b52a	1.1930287
78	0x3fa3033b	1.2735361
79	0xbd57e032	-0.052704044
80	0xbe883cab	-0.26608786
81	0x3ef8ecae	0.48618072
82	0x3f79253e	0.9732245
83	0xbd8e49e5	-0.06947688
84	0x3f904db6	1.1273715
85	0x3f86cd58	1.0531416
86	0x3f97128c	1.1802535
87	0xbea4b76f	-0.321712
88	0xbd4ca62a	-0.049963154
89	0x3fb99064	1.449719
90	0x3fa0be33	1.2558044
91	0xbe9085c6	-0.2822706
92	0xbd7cc492	-0.0617109
93	0xbd4c00dd	-0.04980551
94	0xbec789a4	-0.389722
95	0x3fa9d440	1.3267899
96	0x3f974a75	1.1819597
97	0x3f8d22c1	1.1026231
98	0x3f857d7d	1.0428921
99	0x3e92baad	0.28658047
100	0x3fa92722	1.3215067
101	0xbd154831	-0.0364458
102	0xbd222a9c	-0.039591417
103	0xbd7e15d9	-0.062032554
104	0xbd6045ac	-0.054753944
105	0x3f5326ca	0.8248106
106	0xbd4253ca	-0.04744319
107	0x3ed8904a	0.42297584
108	0x3f2c4d2a	0.67305243
109	0x3fbb7474	1.4644914
110	0x3eeb1cb7	0.45920345
111	0x3fa786b0	1.3087978
112	0x3fb5ee0a	1.4213269
113	0x3f980a31	1.187811
114	0xbd6d1e39	-0.05789015
115	0x3d57b9de	0.05266749
116	0x3f9e35d0	1.2360172
117	0xbd4a48c4	-0.0493858
118	0x3f8ca2c7	1.0987176
119	0xbcb336cf	-0.02187672
120	0xbd54d3e9	-0.051959906
121	0x3fb35d03	1.401276
122	0x3fb40ad0	1.40658
123	0xbdaa8803	-0.083267234
124	0xbd0345cc	-0.032048985
125	0xbd428943	-0.047494184
126	0x3f1f2546	0.6216625
127	0x3fa2d234	1.2720399

unknown_4 f4 [2]
0	0x3f56253e	0.8365058
1	0x3fc5d909	1.5456859

sequential/dense/MatMul;StatefulPartitionedCall/sequential/dense/MatMul f4 [128, 12]
0	0x3dd10f07	0.10207944
1	0xbdb50353	-0.08838525
2	0xbe07bf5a	-0.13256589
3	0x3e03f4fd	0.12886424
4	0x3d4745f8	0.04865071
5	0x3e5dc397	0.21656643
6	0xbe08ae97	-0.1334785
7	0xbbf60110	-0.007507451
8	0x3c0093f9	0.007847779
9	0x3e06eeee	0.13177082
10	0xbf7ff343	-0.9998056
11	0xbb91c4de	-0.004448517
12	0xbe52ef21	-0.20599033
13	0xbdf65e88	-0.12029749
14	0x3c83910b	0.016060373
15	0x3e5fd60a	0.21858993
16	0xbe13fe71	-0.1445253
17	0xbe0cb23a	-0.13739863
18	0xbdbc1210	-0.09183133
19	0x3def9b77	0.116995744
20	0x3e67b995	0.22629388
21	0xbe887a5c	-0.26655853
22	0x3e40f8d8	0.18844926
23	0x3e85d05a	0.26135522
24	0x3e836d79	0.25669459
25	0x3db4ada5	0.088221826
26	0xbda11ae8	-0.0786646
27	0x3dd1f058	0.1025092
28	0xbd9831e5	-0.074313916
29	0x3f0fbb2f	0.56144994
30	0xbe2fc655	-0.17165501
31	0x3eb3aec6	0.3509428
32	0x3e2708d5	0.16311963
33	0xbf8109e1	-1.008114
34	0xbd8fa642	-0.07014133
35	0xbdcc9506	-0.099893615
36	0x3e44139a	0.19148102
37	0x3df3821f	0.11890053
38	0x3d73d659	0.05953059
39	0x3d3b13cc	0.045673177
40	0x3e3ba74a	0.18325534
41	0x3d15ffac	0.03662078
42	0xbd95c00b	-0.0731202
43	0xbde60cf6	-0.11232941
44	0x3b89a69a	0.0042007687
45	0x3de04037	0.10949748
46	0xbe8b9f65	-0.27270046
47	0xbe0bcf09	-0.13653196
48	0x3cb4727d	0.022027249
49	0xbd4e9397	-0.05043372
50	0xbd0717e5	-0.032981772
51	0x3e5028d1	0.2032807
52	0x3db4ccfd	0.08828161
53	0x3c8f4a73	0.017491555
54	0x3cc748f1	0.024326773
55	0xbe4e0dbe	-0.2012243
56	0x3ed0abba	0.40756017
57	0xbeb00f58	-0.34386706
58	0xbef98545	-0.4873449
59	0x3ed97f42	0.42479903
60	0xbd2a3a17	-0.041559305
61	0x3cb17165	0.021660516
62	0xbe6242d2	-0.22095802
63	0xbd93251e	-0.07184814
64	0xbce69f95	-0.028152267
65	0xbd3aba52	-0.045587845
66	0x3dd408f5	0.10353271
67	0xbd063751	-0.032767598
68	0x3da4fd3b	0.080561124
69	0x3d617c98	0.055050462
70	0x3de04d1e	0.10952209
71	0xbbb6b1dd	-0.005575402
72	0x3d9548ed	0.072893
73	0xbcbed600	-0.023295403
74	0x3c5455e4	0.012959931
75	0x3d4ee687	0.050512817
76	0xbe7b7d98	-0.24559629
77	0x3d1588d4	0.036507443
78	0xbdc79690	-0.097455144
79	0xbe70d895	-0.2352012
80	0x3da1fb94	0.07909313
81	0xbc30ed3a	-0.010798747
82	0x3e1343c4	0.1438132
83	0x3e81be88	0.25340676
84	0xb957ac44	-0.00020568172
85	0x3e32bfac	0.1745593
86	0x3e03f8e3	0.12887911
87	0x3be92b5e	0.0071157655
88	0xbc3b8c44	-0.011447016
89	0xbd53f07f	-0.051743027
90	0xbe00090e	-0.12503454
91	0x3cf8e323	0.030381745
92	0x3e88a7cd	0.26690522
93	0xbe8d821c	-0.27638328
94	0xbead8121	-0.3388758
95	0x3f0a1b03	0.53947467
96	0x3e50d9c7	0.20395575
97	0x3d1ada30	0.037805736
98	0x3e849393	0.2589384
99	0xbe51bdc2	-0.20482543
100	0xba0ef248	-0.0005452973
101	0x3e0355a2	0.12825635
102	0x3d94cef7	0.07266038
103	0xbd93b517	-0.072122745
104	0xbd1929c2	-0.03739334
105	0xbf30538c	-0.6887748
106	0xbf2f1ecd	-0.68406373
107	0x3f649fe4	0.89306474
108	0x3cd571ff	0.026055334
109	0x3cffa33b	0.031205764
110	0xbd318f4d	-0.043349553
111	0xbb8347ec	-0.0040063765
112	0x3d7c39c9	0.061578546
113	0xbcfcc136	-0.030853849
114	0x3ce68cb6	0.028143268
115	0x3da2ee6a	0.0795563
116	0xbd8c0fa4	-0.06838921
117	0xbdea27ed	-0.114333965
118	0x3b41e929	0.0029588437
119	0x3da11068	0.07864457
120	0xbd8684b5	-0.065682806
121	0x3e5fe478	0.21864498
122	0xbe293b7a	-0.16526595
123	0xbddf07e9	-0.108901806
124	0x3d8d0cb1	0.06887186
125	0x3d8fadea	0.07015593
126	0x3d1a90f5	0.037735898
127	0xbe1724fc	-0.14760202
128	0x3d00deb5	0.03146239
129	0x3d28341a	0.041065313
130	0x3d242987	0.040078666
131	0x3ce2a68e	0.02766731
132	0x3d98e699	0.07465858
133	0x3e170327	0.14747296
134	0x3e207e99	0.15673293
135	0xbdb685ad	-0.089122154
136	0x3dcde7bd	0.10053966
137	0x3e419477	0.18904291
138	0xbd3106dd	-0.043219436
139	0xbda80386	-0.08203797
140	0x3d063ad7	0.032770958
141	0xbe617704	-0.22018057
142	0xbe9efa17	-0.31050178
143	0x3dc8dd3c	0.09807822
144	0x3e7932c7	0.24335776
145	0xbadbba7f	-0.0016763954
146	0x3e0f182f	0.13974069
147	0x3e8994a5	0.2687122
148	0x3b577b26	0.0032879799
149	0xbe5d980f	-0.21640037
150	0x3e3f73ad	0.1869647
151	0xbe894137	-0.26807567
152	0x3da83f0c	0.0821515
153	0xbf257a40	-0.64639664
154	0xbed6e554	-0.41971838
155	0x3f9c2b06	1.220063
156	0x3e1d60c2	0.15368941
157	0xbdd0d341	-0.101965435
158	0xbd24397c	-0.040093884
159	0x3e08626b	0.13318793
160	0xbc7dabac	-0.015482824
161	0x3df2afca	0.11849935
162	0x3c45264d	0.012033057
163	0xbddd6812	-0.108108655
164	0xbe090e0f	-0.13384269
165	0x3e0161fb	0.12635033
166	0xbd0d341d	-0.034473527
167	0xbe4757c4	-0.19467074
168	0xbebbe44a	-0.36697608
169	0x3f348f65	0.705313
170	0xbe3dd6dc	-0.18538994
171	0x3ef86f44	0.4852239
172	0xbea0bf01	-0.31395724
173	0x3e6cb5fe	0.231163
174	0x3df14410	0.1178056
175	0xbf11ec18	-0.57000875
176	0x3e93eb1b	0.2889031
177	0xbebb87b1	-0.36626962
178	0x3ebf5a4e	0.37373585
179	0xbed03b80	-0.40670395
180	0xbd5bffeb	-0.05371086
181	0x3e39ca3e	0.18143556
182	0xbe118d84	-0.1421414
183	0x3df82ca6	0.12117891
184	0x3e8b67b9	0.27227572
185	0x3d22583e	0.039634936
186	0x3e945c54	0.2897669
187	0xbf220d36	-0.6330141
188	0x3c8b6db1	0.017020078
189	0xbf02cc40	-0.5109291
190	0xbf0530c2	-0.52027524
191	0x3f98fa97	1.1951474
192	0xbdc534a6	-0.096291825
193	0xbcdfd365	-0.02732248
194	0x3dff6574	0.124705225
195	0xbc7f0652	-0.015565472
196	0xbe645bbe	-0.22300622
197	0x3d2d2323	0.042269837
198	0x3dc8089e	0.097672686
199	0x3e05fd02	0.13084796
200	0xbcf9dd58	-0.030501053
201	0xbe0b1a5f	-0.13584279
202	0x3dfbe09d	0.12298701
203	0x3d93a3de	0.072089896
204	0xbe6c2bdb	-0.23063605
205	0x3e0559b0	0.13022494
206	0xbd942ff4	-0.07235709
207	0xbe0a5d9c	-0.13512272
208	0xbe3430b7	-0.17596708
209	0xbe1134ee	-0.14180347
210	0xbcb2261a	-0.021746684
211	0x3afa11ad	0.0019078754
212	0xbdf76bd1	-0.12081111
213	0xbe6e90b3	-0.23297386
214	0x3f0932ac	0.53592944
215	0x3e9989df	0.29988
216	0x3e3997b2	0.18124273
217	0x3e03f114	0.12884933
218	0xbdc3df62	-0.09564091
219	0x3dc56aa8	0.09639484
220	0x3d628d5d	0.055310596
221	0xbe02350e	-0.12715551
222	0x3e2c29f3	0.16812877
223	0xbe8e18c7	-0.2775328
224	0x3eac9a6b	0.33711562
225	0xbddcfdde	-0.10790609
226	0xbf2b46c1	-0.66904837
227	0x3e8ba01f	0.272706
228	0xbda4e351	-0.0805117
229	0x3e31a891	0.17349459
230	0xbddd83a2	-0.108161226
231	0x3e0e8f6e	0.13921902
232	0xb8a42159	-7.826341e-05
233	0x3d1eeac4	0.03879811
234	0x3e7b1cbd	0.24522682
235	0x3edc0a02	0.42976385
236	0x3e2e82be	0.17042062
237	0x3ebd1138	0.369272
238	0xbe906da8	-0.2820866
239	0xbf48542f	-0.78253454
240	0xbf5b2701	-0.8560639
241	0xbd1c57f8	-0.03816983
242	0xbee4bdf5	-0.44676176
243	0xbe9188d6	-0.2842471
244	0xbca45636	-0.02006064
245	0x3bbdbd8a	0.005790417
246	0x3e85cdf9	0.26133707
247	0x3e1e57be	0.15463158
248	0x3e57cb67	0.21073686
249	0x3f279245	0.65457565
250	0x3f336db4	0.7008927
251	0xbeca9945	-0.3957006
252	0x3e012a09	0.12613691
253	0xbe51e80c	-0.20498675
254	0x3ccdb333	0.025109863
255	0xbcc5665f	-0.024096666

sequential/dense_1/MatMul;StatefulPartitionedCall/sequential/dense_1/MatMul f4 [128, 128]
0	0xbcdb9655	-0.026805082
1	0xbdd1adff	-0.10238265
2	0xbdb6e821	-0.08930994
3	0xbe12e6bf	-0.14345835
4	0xbde631cf	-0.11239969
5	0xbb98c38a	-0.004661982
6	0x3d8639ed	0.06554017
7	0x3d833311	0.064062245
8	0xbc001457	-0.007817349
9	0xbd899d98	-0.06719512
10	0xbe24e667	-0.16103517
11	0xbe45505f	-0.1926894
12	0xbceea89c	-0.029133134
13	0xbdc6c8ef	-0.09706294
14	0xbda73aa3	-0.08165481
15	0xbe160418	-0.14649999
16	0x3ca72683	0.020404106
17	0xbe1083d7	-0.14112793
18	0x3cd5117a	0.02600931
19	0x3c8122c8	0.015763655
20	0xbe05c0d3	-0.13061838
21	0x3d41a4c0	0.04727626
22	0x3db10eed	0.08645425
23	0xbdbc71f0	-0.09201419
24	0x3decd0d5	0.11563269
25	0x3d7584ba	0.05994103
26	0xbb4b5bdd	-0.0031030097
27	0x3db75d71	0.089533694
28	0x3cbd6db8	0.023123607
29	0xbe3fb751	-0.18722273
30	0xbd998bb3	-0.07497349
31	0x3d84594c	0.064623445
32	0xbe4c191c	-0.19931453
33	0x3dbb2880	0.09138584
34	0x3d9d8ea3	0.076932214
35	0x3bacd163	0.0052739843
36	0xbc1036aa	-0.008802095
37	0xbe37a4f2	-0.17934015
38	0x3cb88d94	0.022528447
39	0xbd66a6da	-0.056311466
40	0xbe5032e6	-0.20331916
41	0xbd37a77d	-0.044837464
42	0xbe247a2f	-0.16062234
43	0xbd995543	-0.074869655
44	0x3c8b7815	0.017025033
45	0xbe32cb73	-0.17460422
46	0x3d5026f9	0.050818417
47	0xbe1e30dd	-0.15448327
48	0x3c6893ed	0.0141954245
49	0x3ce75982	0.028240923
50	0x3dd2ab05	0.10286526
51	0x3d20cfa6	0.03926053
52	0x3d640e9a	0.055677988
53	0xbdbdc70f	-0.09266483
54	0x3cb377e1	0.021907749
55	0xbdcb14fc	-0.09916112
56	0x3dba55c6	0.09098391
57	0x3dbf0a77	0.09328168
58	0x3abf3403	0.0014587644
59	0x3c8a9133	0.01691494
60	0xbe3da555	-0.185201
61	0xbdde2de4	-0.10848597
62	0xbcfaa22f	-0.030594913
63	0x3c8392a7	0.01606114
64	0xbe5918cd	-0.21200867
65	0x3d181c3a	0.037136294
66	0x3d82abed	0.063804485
67	0x3bc0143c	0.005861787
68	0x3d38188b	0.04494528
69	0x3d8d0ac0	0.06886816
70	0x3d3f850e	0.04675775
71	0xbdd20dd2	-0.10256542
72	0x3c3dd1de	0.011585681
73	0x3d0f5119	0.03498945
74	0x3d0818d4	0.033226803
75	0x3af56b68	0.0018724026
76	0xbe1ed4b0	-0.15510821
77	0xbdaf37b6	-0.08555548
78	0x3dbc9205	0.092075385
79	0xbc36fce6	-0.011168694
80	0xbb60d4a1	-0.0034306424
81	0xbd0b2177	-0.03396746
82	0xbe2f77d8	-0.1713556
83	0x3dd756d3	0.10514607
84	0xbe3501f9	-0.17676534
85	0x3c68a7a5	0.014200126
86	0xbe22dbd7	-0.15904175
87	0xbe0cd596	-0.13753352
88	0xbdd39adc	-0.103322715
89	0x3d3e3316	0.046435438
90	0xbd77288a	-0.060341395
91	0xbe0b86a5	-0.13625582
92	0x3dc34d20	0.09536195
93	0x3c84f56b	0.016230306
94	0xbe252696	-0.16128
95	0xbb68954f	-0.0035489385
96	0xbd822fff	-0.06356811
97	0xbd091437	-0.033466544
98	0xbe1515b7	-0.14559065
99	0xbe3320c8	-0.17492974
100	0xbc557a28	-0.013029613
101	0xbddde519	-0.108347125
102	0x3c60b12f	0.013714119
103	0x3d32c425	0.04364409
104	0x3d8b6d12	0.06807913
105	0x3d65e9bd	0.056131113
106	0xbc9436c9	-0.01809253
107	0xbd7c609c	-0.06161557
108	0x3d830db7	0.063991
109	0xbbd0ca6c	-0.006371787
110	0xbe3c79ca	-0.18405834
111	0xbe222bbd	-0.15836997
112	0x3de330d1	0.11093295
113	0x3d630cd0	0.05543214
114	0xbd56db4e	-0.05245524
115	0xbdfff040	-0.12496996
116	0xbcf30387	-0.029664768
117	0xbe040387	-0.1289197
118	0x3c55400d	0.013015759
119	0xbd630766	-0.055426978
120	0xbbd51fa7	-0.0065040174
121	0xbe268410	-0.16261315
122	0x3de897cd	0.11357079
123	0xbd9cbd4c	-0.07653293
124	0xbde0aa62	-0.10969998
125	0xbe565be8	-0.20933497
126	0xbce97ec2	-0.028502826
127	0xbd0f9160	-0.03505075
128	0xbdb63563	-0.088969015
129	0xbcf285fc	-0.029604904
130	0xbe1878e1	-0.14889862
131	0xbc941b04	-0.018079288
132	0x3c8b2b59	0.016988443
133	0xbdc79932	-0.097460166
134	0x3d6cc782	0.057807453
135	0xbd83920c	-0.064243406
136	0x3dcf7b5c	0.10130951
137	0xbdbbff1f	-0.0917952
138	0x3ddb1b15	0.10698525
139	0x3c8d309b	0.017235091
140	0x3e0a069b	0.13479082
141	0xbe1e6436	-0.15467915
142	0x3c960590	0.0183132
143	0x3d613ad3	0.05498774
144	0xbc634f77	-0.013873926
145	0xbe399ef7	-0.18127047
146	0xbdd1fdd3	-0.10253491
147	0x3d8522d9	0.06500787
148	0xbdafac55	-0.085777916
149	0xbd3b408f	-0.045715865
150	0x3dc19123	0.09451511
151	0xbcd6ee64	-0.02623672
152	0x3dc60d1b	0.096704684
153	0x3cef1f37	0.02918969
154	0xbe1098c0	-0.1412077
155	0xbdeeda34	-0.11662713
156	0x3cdb9f5a	0.026809383
157	0xbdd79bfe	-0.105278
158	0x3bd7f813	0.006590852
159	0xbe04505b	-0.12921278
160	0xbd8c5867	-0.06852799
161	0xbdefb305	-0.11704067
162	0x3db82723	0.0899184
163	0x3d43103d	0.047622908
164	0x3da9f307	0.08298307
165	0xbc9e6d3a	-0.019339193
166	0x3d687c9d	0.056759465
167	0xbd2ea8e6	-0.042641543
168	0xbaa23d80	-0.0012377948
169	0xbdc9aa25	-0.098469056
170	0x3d2030d1	0.039109055
171	0xbe1d667d	-0.15371127
172	0x3dbfb344	0.09360364
173	0xbe2a1e40	-0.16613102
174	0xbe5f170a	-0.21786132
175	0xbe210839	-0.15725793
176	0xbe1f3258	-0.15546548
177	0xbe14ea10	-0.14542413
178	0xbdbf19f6	-0.093311235
179	0x3dbe57ba	0.09294076
180	0x3c960eaf	0.018317549
181	0xba7ea7b3	-0.000971432
182	0xbd832b6c	-0.064047664
183	0xbd06aa95	-0.032877523
184	0x3d371422	0.044696935
185	0x3da6deed	0.081479885
186	0xbe102946	-0.14078245
187	0x3d4fc23a	0.05072234
188	0xbd51cd3c	-0.051221117
189	0xbdd624de	-0.104562506
190	0xbd9546b1	-0.07288874
191	0x3dd6b777	0.10484212
192	0xbd415263	-0.04719771
193	0x3dab2960	0.08357501
194	0x3ce478c5	0.027889619
195	0x3d89642b	0.06708559
196	0xbe529174	-0.20563298
197	0xbda1ddaf	-0.07903611
198	0xbe218237	-0.1577233
199	0xbe2fcbe4	-0.17167622
200	0xbcc4996c	-0.023998939
201	0x3d8fd361	0.07022739
202	0x3d2e548b	0.042561095
203	0x3d1193e8	0.035541445
204	0xbe1bb1eb	-0.15204589
205	0xbcfc0f84	-0.030769117
206	0x3da87642	0.08225681
207	0xbe3f9a17	-0.18711124
208	0xbde6a2b0	-0.11261499
209	0xbe182e5c	-0.14861435
210	0x3d65e1d3	0.056123566
211	0xbdee5f62	-0.116392866
212	0xbd8a5248	-0.06753975
213	0x3c93b036	0.01802836
214	0x3da78a23	0.08180644
215	0x3d1c7645	0.038198728
216	0xbdfb263a	-0.122631505
217	0x3da4d5b6	0.080485746
218	0xbdd4be92	-0.10387911
219	0x3d48de39	0.049040053
220	0xbe13dde2	-0.1444011
221	0xbcf8fd44	-0.030394204
222	0xbd9393b6	-0.07205908
223	0xbe3e2197	-0.18567501
224	0xbe0fa352	-0.14027146
225	0xbc21ba90	-0.00987114
226	0x3d7878ed	0.0606622
227	0xbc8db6dc	-0.017299108
228	0xbd0789bb	-0.033090334
229	0xbc4c2bca	-0.012461612
230	0x3d1e1282	0.03859187
231	0xbe1aecc4	-0.15129381
232	0xbe1a02ce	-0.15040132
233	0x3da11f77	0.078673296
234	0x3d890687	0.06690698
235	0xbdbfbfc9	-0.09362752
236	0x3d579ae2	0.052637942
237	0xbd1ad406	-0.037799858
238	0xbd89f747	-0.067366175
239	0xbd8472a5	-0.06467179
240	0x3d7ba5fd	0.061437596
241	0x3d132610	0.03592497
242	0xbcb27b3e	-0.021787282
243	0xbda9cbca	-0.08290823
244	0xbcddbe67	-0.02706833
245	0x3d7d9adb	0.06191526
246	0x3d4fe697	0.050757017
247	0xbd8e6e15	-0.0695459
248	0x3db061c4	0.08612397
249	0xbd226937	-0.039651122
250	0x3c6b4675	0.01436006
251	0xbdfb9255	-0.1228377
252	0xbbd44fde	-0.0064792475
253	0x3b4a8c79	0.0030906482
254	0x3c630540	0.013856232
255	0xbe170496	-0.14747843

sequential/dense_2/MatMul;StatefulPartitionedCall/sequential/dense_2/MatMul f4 [2, 128]
0	0xbd7088bd	-0.058724154
1	0x3e044b16	0.12919268
2	0xbcd9dc02	-0.026594166
3	0xbe4db9ec	-0.20090455
4	0xbe1bd5fd	-0.15218349
5	0x3e1131f2	0.14179209
6	0x3e0cde6f	0.13756727
7	0x3d9e8180	0.07739544
8	0xbe12b6b2	-0.14327505
9	0x3d2477b7	0.04015323
10	0x3e21feca	0.1581985
11	0x3c9e1bdb	0.019300392
12	0xbe925568	-0.28580785
13	0xbe90066e	-0.28129905
14	0x3d0dc039	0.034607146
15	0xbe9086d7	-0.28227875
16	0xbcea7723	-0.028621262
17	0xbda2b54d	-0.07944737
18	0x3ab7baf7	0.0014017512
19	0x3e85864b	0.2607902
20	0xbe4e65d8	-0.20156038
21	0xbd82aa61	-0.063801534
22	0x3a8d985b	0.0010802852
23	0xbd756ab7	-0.059916224
24	0x3da2b85b	0.07945319
25	0x3dfc4e17	0.12319582
26	0xbd9ffea6	-0.07812242
27	0x3e12913f	0.1431322
28	0x3d4c5596	0.04988631
29	0x3e150012	0.14550808
30	0x3dafc0ee	0.0858172
31	0x3cc23383	0.023706203
32	0x3daabcf2	0.0833682
33	0xbe733dd1	-0.2375405
34	0xbd564ba2	-0.052318223
35	0xbe9d0aa7	-0.3067219
36	0x3d00bcc8	0.031430036
37	0x3da4274e	0.08015309
38	0xbd818c71	-0.06325615
39	0xbe7dd353	-0.24787645
40	0xbe54a533	-0.20766144
41	0x3b8e83f7	0.0043492275
42	0xbdf745ed	-0.12073884
43	0x3d6166c3	0.05502964
44	0x3e856d90	0.26060152
45	0x3e919381	0.2843285
46	0xbe27ff1e	-0.16405913
47	0xbe54d412	-0.20784023
48	0xbd4b3d65	-0.049619097
49	0xbd568488	-0.052372485
50	0x3dc46be5	0.09590892
51	0xbdf0d7a9	-0.11759884
52	0xbe5f0a5e	-0.21781299
53	0x3f18db09	0.5970922
54	0x3e2118db	0.15732138
55	0xbdb494e0	-0.08817458
56	0xbe5f530e	-0.21809027
57	0x3e0f4acf	0.13993381
58	0x3d0966dc	0.03354536
59	0xbe794d25	-0.24345835
60	0xbd511515	-0.051045496
61	0xbd4f1d8d	-0.05056529
62	0xbe532b0d	-0.20621891
63	0x3e11e036	0.14245686
64	0x3d93dcdb	0.07219859
65	0x3de49d8f	0.111628644
66	0x3f2214c5	0.6331294
67	0xbd801a5d	-0.062550284
68	0x3c94ab6e	0.01814815
69	0x3df203ee	0.11817156
70	0xbd1387e0	-0.036018252
71	0xbe6a3d34	-0.2287491
72	0xbe12cf29	-0.14336838
73	0x3e568649	0.20949663
74	0x3eee5361	0.46547988
75	0xbea11d3b	-0.31467614
76	0xbda123bf	-0.07868146
77	0xbd860c39	-0.065453
78	0x3e406aed	0.18790789
79	0xbdaa87a7	-0.08326655
80	0xbdd56529	-0.104196854
81	0x3de3c08d	0.111207105
82	0xbe7abda9	-0.24486412
83	0x3d34bc5f	0.044124957
84	0xbe8903d5	-0.26760736
85	0xbda26f9b	-0.07931443
86	0x3dbd2f87	0.09237581
87	0x3eb338c9	0.3500426
88	0x3d8787fe	0.06617735
89	0x3e9e2d62	0.30894
90	0x3e841e57	0.25804397
91	0x3d3a4474	0.04547544
92	0x3d9aae6e	0.07552801
93	0x3d941d51	0.07232154
94	0x3dd92dc5	0.10604433
95	0x3e65bf86	0.22436342
96	0xbda8b0eb	-0.082368694
97	0xbb23219a	-0.0024891854
98	0x3ddced87	0.10787492
99	0xbd7b9461	-0.061420802
100	0x3de0587b	0.10954376
101	0xbcdae48b	-0.026720306
102	0x3d809e4d	0.062801935
103	0xbe3b53f4	-0.18293744
104	0x3b949ff0	0.0045356676
105	0xbe4fdd5e	-0.20299289
106	0x3d705c21	0.05868161
107	0xbd8aac66	-0.06771164
108	0x3e376ba4	0.17912155
109	0x3eac0c77	0.3360326
110	0xbd814ca6	-0.06313448
111	0x3dc00b48	0.09377152
112	0x3e564f5e	0.20928714
113	0x3f24fbba	0.64446604
114	0xbe45495b	-0.19266264
115	0x3a1a6f14	0.0005891186
116	0xbe26f49f	-0.16304253
117	0xbca1ca89	-0.019749897
118	0xbe4fcd0c	-0.20293063
119	0xbe00c8db	-0.1257662
120	0x3df01ac8	0.11723858
121	0x3f0e0340	0.5547371
122	0x3e89c93e	0.26911348
123	0xbe20e967	-0.15714036
124	0xbdcfdc4d	-0.10149441
125	0xbb5b8fb6	-0.0033502406
126	0x3dba59f8	0.090991914
127	0x3e63d259	0.2224821
128	0x3c32330d	0.010876429
129	0xbdaedaf2	-0.08537854
130	0xbaa15583	-0.001230881
131	0xbba325a6	-0.0049788533
132	0xbdc4474a	-0.0958391
133	0xbc97c74d	-0.018527651
134	0xbdc3e80a	-0.09565742
135	0xbe291d62	-0.16515115
136	0xbef380f9	-0.47559336
137	0x3cca5cc2	0.024702433
138	0xbd0007d8	-0.03125748
139	0x3e108803	0.14114384
140	0xbe052c40	-0.13005161
141	0x3e8957ea	0.26824886
142	0xbdd10f26	-0.102079675
143	0x3e49daa6	0.19712314
144	0x3cb1ec9b	0.021719268
145	0x3ead676c	0.33867967
146	0xbcde488b	-0.0271342
147	0x3e141b24	0.14463478
148	0x3eadeaf0	0.33968306
149	0xbcb1782f	-0.021663753
150	0xbcdee3c8	-0.027208224
151	0xbd492097	-0.049103346
152	0xbe461f44	-0.19347864
153	0x3e95ea9b	0.29280552
154	0xbc0ab95c	-0.008467045
155	0x3ecb28a2	0.39679438
156	0x3ea9d635	0.3317124
157	0xbd973758	-0.07383603
158	0x3ec18a82	0.37800986
159	0x3e22c903	0.15896992
160	0xbde08189	-0.10962207
161	0x3e6be673	0.23037128
162	0x3e6b259f	0.2296357
163	0x3e87ec31	0.26547387
164	0x3e5959ed	0.2122571
165	0xbdc0468e	-0.09388457
166	0xbe001d76	-0.12511238
167	0x3eaa7862	0.3329497
168	0x3eb38634	0.35063326
169	0x3da8c02b	0.08239778
170	0xbc53c26e	-0.012924774
171	0x3e6fe818	0.2342838
172	0x3a4d64f2	0.00078351714
173	0xbde657e2	-0.11247231
174	0x3e4eaf3d	0.20184036
175	0xbe371590	-0.17879319
176	0xbdd6fc8f	-0.104973905
177	0x3c213002	0.009838106
178	0x3ebc7e4c	0.36815107
179	0x3e539d25	0.20665415
180	0xbd90d3f5	-0.070716776
181	0x3ea4bc35	0.3217484
182	0xbdc23b9a	-0.09484024
183	0xbcd2b081	-0.02571893
184	0xbd56167d	-0.05226754
185	0xbdb1b70f	-0.08677494
186	0xbc5e45ae	-0.013566418
187	0xbe987b78	-0.297817
188	0xbdba4ed1	-0.09097064
189	0x3c74e71e	0.014947681
190	0x3e83c81e	0.25738615
191	0xbdb712bd	-0.08939121
192	0xbf685b69	-0.9076448
193	0x3eab90d0	0.3350892
194	0x3e6ffdc6	0.2343665
195	0xbcc25c3e	-0.023725625
196	0xbd916862	-0.070999876
197	0xbd80ea34	-0.06294671
198	0xbdcde2a8	-0.10052997
199	0x3c69b1db	0.014263595
200	0x3eaa1464	0.33218682
201	0xbe2f0f22	-0.17095616
202	0x3eb8177e	0.35955423
203	0x3ea6ed64	0.3260299
204	0xbd8c2831	-0.068436034
205	0x3e8d3416	0.275788
206	0x3e7398fa	0.23788825
207	0xbd24eae3	-0.040263068
208	0xbe535810	-0.20639062
209	0xbd5d0a13	-0.053964686
210	0x3e7b3ce5	0.24534948
211	0xbd29350d	-0.04131036
212	0x3ead0ed0	0.33800364
213	0x3e5fd1f7	0.21857439
214	0x3e2bdfe4	0.16784626
215	0xbec498ad	-0.38397732
216	0xbe3d3533	-0.18477325
217	0x3e977e53	0.29588565
218	0x3e387981	0.180151
219	0xbe4f4a19	-0.2024311
220	0xbdfe4462	-0.12415387
221	0xbe1a668c	-0.15078181
222	0xbe8463a9	-0.25857285
223	0x3e780b3e	0.24223039
224	0x3eca0f9e	0.3946504
225	0x3ef601ef	0.4804835
226	0x3d81826e	0.063237056
227	0x3dae64ea	0.085153416
228	0x3eae28eb	0.34015593
229	0x39cc6678	0.00038986257
230	0xbd206eaa	-0.039168037
231	0xbd53c1a8	-0.051698357
232	0x3ca4cc0a	0.020116825
233	0x3e0cd05b	0.13751356
234	0xbb36c4a0	-0.0027888194
235	0xbd796584	-0.06088783
236	0xbd53ca5b	-0.051706653
237	0x3ea49868	0.32147527
238	0x3b226500	0.002477944
239	0x3e996390	0.29958773
240	0x3ea6cf9f	0.32580277
241	0x3e4581e1	0.19287826
242	0xbda6a1f7	-0.08136361
243	0xbe9d7548	-0.3075354
244	0x3ec12f31	0.37731317
245	0xbe203d4d	-0.15648384
246	0x3eaa5522	0.33268076
247	0xbdcfd036	-0.10147135
248	0x3bbe4326	0.0058063446
249	0x3e6a9c1b	0.22911112
250	0x3eb70660	0.3574705
251	0x3c581d8e	0.01319064
252	0x3b2ca804	0.0026345262
253	0xbe37f400	-0.17964172
254	0xbd9eb38b	-0.07749089
255	0x3e29500e	0.16534445
